app/src/main/assets/AAAA4.tflite (tflite, 541976 bytes, 20 tensors)

sequential_19/output/BiasAdd/ReadVariableOp f4 [3]
000000 35 0d b3 3b a8 3e 84 3c 43 3a 97 bc
       0.005464221 0.016143158 -0.018460399

sequential_19/dense_33/BiasAdd/ReadVariableOp f4 [32]
000000 86 52 6f 3c a6 f7 b1 3c f5 1c 9a 3c b4 75 38 bc
       0.014607077 0.021724533 0.018812636 -0.011258531
000010 c5 58 aa 3c 01 b0 7b 3b 82 b9 2c 3a ba 52 fb bb
       0.020794282 0.0038404467 0.0006588922 -0.007669774
000020 5b d3 20 3c b7 1e 2f ba ed d2 92 3b 05 11 0f 3c
       0.009816016 -0.0006680297 0.0044807107 0.008732085
000030 84 27 c7 3c f3 f2 a7 3c 54 8c 09 3c 04 76 92 3c
       0.024310835 0.02050159 0.008395273 0.01787854
000040 b3 a8 88 bc c7 b7 83 3c b1 39 05 3d 78 41 81 3c
       -0.016682005 0.016078843 0.032525722 0.015778288
000050 ec b8 1e 3c d9 f0 93 b8 f7 23 20 bc 88 df 02 3d
       0.0096876435 -7.0543676e-05 -0.0097742 0.031951457
000060 6e 35 99 3c 6f af c5 3c bb 34 12 bc 99 65 ca 3c
       0.018702235 0.024131505 -0.008923705 0.024706649
000070 7c d9 75 bb e7 c3 08 bc 4e a9 66 3c 66 4c ab bc
       -0.0037513664 -0.008347488 0.014078451 -0.020910453

sequential_19/dense_34/BiasAdd/ReadVariableOp f4 [32]
000000 f9 5d b3 3b 52 03 8a 3c 96 cc 3e 3c c9 33 a3 bc
       0.005473849 0.016847286 0.011645457 -0.019922154
000010 3f f1 34 3c dd dd 99 3c 4e e6 80 bc 03 f0 c5 bb
       0.011043846 0.01878255 -0.015734818 -0.0060405745
000020 e9 27 35 3c d7 d0 a1 3b cd 58 81 bc f1 3a 5b bc
       0.011056879 0.0049382257 -0.015789414 -0.013380752
000030 02 9a e2 3b d7 45 ac 3c e6 72 f5 ba 77 b7 e9 3b
       0.006915332 0.021029396 -0.0018726259 0.0071324664
000040 0c 94 54 3c d4 9a 90 bb 22 0b cf 3c a2 0d 99 bc
       0.01297475 -0.004412988 0.025273863 -0.018683258
000050 3e b8 a3 3c 6f b0 3e 3d fb a7 64 3c 8d 0a 44 3d
       0.019985314 0.04655498 0.013956065 0.047861625
000060 c5 17 61 3c 7b 89 6f bc 09 78 fd 3b 66 3a 06 3d
       0.013738577 -0.01462018 0.0077352566 0.032770537
000070 68 b3 a7 3c c9 6d 03 bd 3a 9c a7 3b 4d 87 a3 3c
       0.02047129 -0.03208712 0.005115059 0.019961977

sequential_19/dense_35/BiasAdd/ReadVariableOp f4 [32]
000000 ba 84 8f 3c ec d7 d5 3c f1 de 03 3c 1b f9 46 bc
       0.017519344 0.026103936 0.008048759 -0.012144352
000010 f8 a5 8b bb cf 12 00 3d 52 2d b3 3b f0 b4 fa ba
       -0.0042617284 0.031267937 0.005468049 -0.001912741
000020 a9 0f 71 3c 2d da f1 3c 67 d3 a7 3b 54 b0 9a 3c
       0.014713206 0.02952298 0.0051216367 0.018882908
000030 c4 87 11 bc d6 2b 1f bc 11 24 33 bc 4b 2a 17 39
       -0.008882467 -0.009715041 -0.010933892 0.00014416238
000040 f2 63 e7 3c 6f e6 89 ba 25 7a 83 bc f1 e3 ea bb
       0.0282459 -0.0010520945 -0.016049454 -0.007168286
000050 25 16 e3 3c 77 db 18 bc 08 8f b5 bc d7 16 1f 3c
       0.02772052 -0.009329668 -0.02216293 0.009710035
000060 53 84 1d 3c aa 43 78 3a 1e 39 7f 3c cf d1 e0 3c
       0.009614068 0.0009470532 0.015577583 0.027443795
000070 e1 18 2d bc 89 6c ef 3c 74 98 e1 3c 2c a2 17 39
       -0.010565014 0.029226558 0.027538516 0.00014460896

arith.constant f4 [64, 64]
000000 13 a1 d2 3b d8 e4 84 3d ae c8 a9 bd a2 9e 10 3d
       0.006427893 0.06488961 -0.0829023 0.035307534
000010 8d c7 1b bc b2 ba 05 3d 7b 5f 60 bd 88 4b 01 bd
       -0.009508026 0.03264875 -0.054778557 -0.031566173
000020 df 56 d6 3d d7 c0 0b bd 50 db 6c bc 61 ab 99 bc
       0.10465788 -0.034119453 -0.014456585 -0.018758478
000030 3e 34 9a bc 37 4a 8b 3b 8d c7 28 be 95 5c 31 3c
       -0.01882374 0.0042507905 -0.16482373 0.010825296
000040 d0 31 d6 bc 24 30 0d be 70 05 d4 3d 20 12 88 bb
       -0.0261468 -0.13787895 0.103525996 -0.0041525513
000050 15 d9 8b bd ef 4a 1b 3d ff 6e 14 bd 60 3f b7 3d
       -0.068285145 0.03791326 -0.036238667 0.08947635
000060 0c 7f 44 bd 2e ed f3 bd 48 2d 34 3c f6 88 2c 3c
       -0.047972724 -0.11910473 0.010997124 0.010530701
000070 20 c4 02 3e e2 e6 da 3c 31 ff a4 3c 07 d4 50 3c
       0.12770128 0.026721422 0.020141216 0.012745864
000080 1f ca ba 3c 66 d9 8f 3d 77 6c 0d 3d ed 8e c6 3d
       0.022801457 0.07023887 0.03452727 0.0969523
000090 31 b1 99 3c d5 49 5e 3c 1c c7 8a bd 6f 11 cb bc
       0.01876125 0.013567408 -0.06776258 -0.024788586
0000a0 17 6a 07 bc da c7 c9 bb 3d 73 96 3d 3a 19 23 be
       -0.00826504 -0.0061578574 0.07346199 -0.15927592
0000b0 c0 e7 d5 3d 9b 2a a1 bc ae ce a6 bd 33 fb a8 3c
       0.104445934 -0.019673636 -0.0814489 0.020627594
0000c0 8b 37 ca 3c 87 5b e5 bc 1e 52 c7 3c 83 ed 84 3d
       0.024684688 -0.027997745 0.024331149 0.06490614
0000d0 16 a5 ff 3b 3a ac 6d bc 87 c8 b0 3d b2 07 bb bb
       0.007801662 -0.014506394 0.086319976 -0.0057077045
0000e0 53 60 1c 3d 3f 99 0b 3e 85 ae 65 bd b5 81 38 3d
       0.0381778 0.13632677 -0.056074638 0.045045573
0000f0 6a 25 56 bd 40 f0 ae 3d 43 60 51 3d e9 45 6d 3d
       -0.052281775 0.08541918 0.051117193 0.057928
000100 cd 8b 23 3d c3 87 3e 3d 7b 64 99 3d 6a b9 bf bd
       0.039928246 0.04651619 0.07489868 -0.09361537
000110 b4 92 b4 bc 6c dd 68 bd 11 da 2d bd f5 7e b9 3c
       -0.02204261 -0.05685179 -0.042444292 0.022643546
000120 ad 89 19 3e fc f6 8c 3c 1f b9 c4 3d 46 a5 60 3d
       0.14993925 0.017207615 0.096056215 0.054845117
000130 d8 36 cd bd eb dc 9c bd cd 3d 2b bd df 46 bd bd
       -0.10020226 -0.07659324 -0.041806985 -0.09242033
000140 a2 96 9c bd 38 f3 34 bc eb 51 bc bd 2e 85 98 3d
       -0.076459184 -0.011044316 -0.09195312 0.07447277
000150 cc b8 e1 bc ae 2c aa 3d a4 c3 10 bd e5 70 2d 3d
       -0.027553938 0.08309303 -0.035342827 0.042343993
000160 9b 58 cf 3c b1 00 d6 3c e8 01 63 3c 7a ac d5 3d
       0.025310805 0.026123377 0.013855435 0.10433288
000170 ed 83 bf bd 44 9e 01 b9 32 b6 30 bd 39 9f ec bb
       -0.09351335 -0.00012361357 -0.043142505 -0.0072211293
000180 45 f5 01 3d 99 29 2a bc f0 59 c7 3d 68 2e d7 bd
       0.031728048 -0.010385894 0.09733951 -0.10506898
000190 49 28 db 3d 1f 77 10 bd cf 55 61 bc a9 2f ab bd
       0.10701043 -0.035269853 -0.0137533685 -0.083587
0001a0 85 db 9a bd 2b d1 db bd 63 57 fb bd 79 2c 0a 3d
       -0.07561401 -0.10733255 -0.12272527 0.03373382
0001b0 28 96 35 3d 42 ef 85 3c 9c 49 88 3c e7 aa 71 3d
       0.044332653 0.016349439 0.016636662 0.059000876
0001c0 32 8f 35 3d 0b 65 cc bc 88 cf 00 bd 20 e6 b1 3c
       0.044326015 -0.024950525 -0.031447917 0.021716177
0001d0 df 71 e7 bc a1 e7 90 3d 63 c5 84 bd 38 a0 93 bb
       -0.02825254 0.0707543 -0.06482961 -0.0045051835
0001e0 82 de a5 3b 93 e4 a5 bd 8a b1 99 bd d0 4b 66 bd
       0.0050619254 -0.08100238 -0.07504566 -0.056224644
0001f0 54 df 35 3d bd cb 8b 3d 9a de 35 3a 73 f7 24 3c
       0.044402435 0.06825969 0.0006937772 0.010068762
000200 4a 41 9f 3d 06 e1 9e bc 97 24 34 bd 31 29 d9 3d
       0.07776125 -0.019394409 -0.043980207 0.1060356
000210 22 5a 94 bc 95 1a 2c 3d 04 97 da bd 85 c7 48 bd
       -0.018109385 0.042017538 -0.10673335 -0.0490184
000220 b9 aa 3a bd d6 1a d7 3c 9b 8a ed 3d 29 9f da 3c
       -0.04557297 0.026257914 0.115987025 0.026687222
000230 ee ed f0 bc 61 18 47 bd df 7c 77 3d e9 10 73 3d
       -0.029410329 -0.048607234 0.06042182 0.0593423
000240 85 77 d7 bc c8 2c b3 3d 9a 5b 29 3d 00 c6 23 bd
       -0.026302109 0.08748776 0.041347124 -0.03998375
000250 b1 73 8b bd 63 b0 93 3d db 36 aa 3d d6 10 5a 3b
       -0.06809176 0.072113775 0.08311244 0.0033274195
000260 3f 18 cb 3c 39 c6 06 bd 82 91 5c 3d cf 2e 5f 3d
       0.024791835 -0.032903884 0.053849705 0.054488
000270 43 d2 4a 3c 62 14 bc 3c 26 0c 44 3d a1 d8 b9 3d
       0.012379232 0.022958938 0.04786315 0.09074522
000280 85 56 f9 bc 28 4d d8 bd 62 44 80 bd 2f 4c 1d bc
       -0.030436764 -0.105615914 -0.06263043 -0.009600683
000290 bd 7c 29 3e da b7 ef 3d 3f 70 1c bd 26 81 05 3e
       0.1655149 0.11704989 -0.038192984 0.13037547
0002a0 88 ed 87 bc 17 5e bc 3d 64 78 90 bd 45 b9 43 3d
       -0.016592756 0.09197634 -0.07054213 0.04778411
0002b0 aa ce d9 bd 8a 5d 21 bc b2 be 1b bd 48 72 88 3d
       -0.10635121 -0.009848962 -0.038023658 0.066624224
0002c0 f5 5f e1 3b 16 c8 7e 3c 44 38 5d 3e 29 00 0b 3c
       0.006877894 0.015550634 0.21603495 0.008483925
0002d0 61 01 5b bd ac d4 a3 bd a6 4b ab 3d b5 cf 50 3d
       -0.053468112 -0.07999548 0.08364038 0.050979335
0002e0 51 d5 5d bc 92 06 74 3c e6 3d e4 bd 70 d4 af bc
       -0.013539628 0.014894145 -0.11144619 -0.021463603
0002f0 4b 43 7e bd 13 bd cd bd 9b 65 3d 3d fb 4e 8b b9
       -0.062075894 -0.10045829 0.046239477 -0.0002657099
000300 35 1c b8 3c b9 39 f7 3d 97 eb 93 bd 0f 0f 04 be
       0.022474388 0.120715566 -0.072226696 -0.1289637
000310 86 d8 15 be 55 5d b5 bd 91 15 e3 bd 46 fb 4c bc
       -0.14633378 -0.08855692 -0.11088098 -0.01251108
000320 d6 24 7b 3d ca 58 31 3d fc 75 f3 3c bb 27 a7 3d
       0.061314426 0.043297566 0.029719345 0.08161875
000330 e0 8e ea bb af 26 71 3d 3b 9f e6 3c 07 b3 92 bd
       -0.0071581453 0.058874782 0.028152099 -0.07163053
000340 61 a9 3b 3d 74 53 e0 bc e7 da 70 3d d7 ee d4 bc
       0.04581583 -0.027383544 0.05880251 -0.025992794
000350 db b9 4a 3d 44 14 de 3d 9f 01 ab 3c b4 69 ee 3d
       0.04949365 0.10843709 0.020874796 0.11641255
000360 95 3e 04 3e 81 99 96 bd 14 b3 aa bd e4 ab 9b 3d
       0.12914498 -0.07353497 -0.08334938 0.07601145
000370 7a c7 3c bc f2 b5 3d bd 92 69 de 3d b0 92 00 bd
       -0.011522168 -0.046316095 0.1085998 -0.031389892
000380 69 4d 13 bd 84 b8 d1 bc 9d 9f 1b bd a8 bc 7b bd
       -0.035962496 -0.02560068 -0.037994016 -0.061459213
000390 28 32 08 bd 6f 2f 3b 3c db 07 8e 3d 9d fc 9f 3d
       -0.033250958 0.011424883 0.06935092 0.07811854
0003a0 09 84 bd bb f5 4a 7c 3d 45 b4 d2 bd e0 be 06 3e
       -0.005783562 0.061594922 -0.1028829 0.1315875
0003b0 ff d9 33 3c cc 5d c7 3d 38 ff 58 3d 5c a5 ac bc
       0.010977267 0.09734687 0.05297777 -0.021074943
0003c0 0c a1 46 3e f3 bd 51 bd 1f 91 29 bc 70 16 a7 3d
       0.19397372 -0.05120654 -0.010349541 0.081585765
0003d0 55 f9 39 3e 84 77 c5 3c 7f a7 dd 3c 52 61 10 bc
       0.18161519 0.024104841 0.027057407 -0.0088122655
0003e0 c4 33 24 ba 64 6b 48 bb 76 e4 41 bd ec 2b 05 be
       -0.0006263817 -0.0030581588 -0.047337018 -0.13005036
0003f0 5f 7a 79 bc 84 63 3a 3c e1 4e ac bd 6f b7 3f 3d
       -0.015226929 0.011376265 -0.084134825 0.046805795

arith.constant1 f4 [64, 64]
000000 01 6c 82 bd ed 48 0e 3c 23 36 91 bd e2 4e c0 3c
       -0.06368256 0.008684379 -0.07090404 0.023475114
000010 c3 d0 67 3d 0d 31 bc 3c a0 c1 57 3c 3c cc 5f 3d
       0.056595575 0.022972608 0.013168722 0.054638132
000020 8a 8f ce bc 3c cc 8a 3d e1 26 af bd 7c 0d 82 3d
       -0.02521493 0.06777236 -0.085523374 0.06350228
000030 41 51 3a 3e 53 c9 8f 3d 36 5f e0 bd 1f a7 bc bb
       0.18195058 0.070208214 -0.1095566 -0.005757227
000040 fe 9f f2 bc fb 5c 04 3e 09 85 98 3d f6 a0 02 3d
       -0.029617306 0.12926094 0.074472494 0.031891786
000050 78 36 d1 bd db 0e 24 3d 64 a9 15 bc 84 a9 83 bd
       -0.10215467 0.04005323 -0.009134624 -0.06428817
000060 de a6 c6 3c 0b c2 65 bd c4 9e e1 3d 65 5f 93 bd
       0.02424949 -0.056093257 0.1101661 -0.071959294
000070 74 fa 77 bd 63 dc 06 3c d7 01 c0 bd 7d 4d 60 3d
       -0.060541585 0.008231255 -0.09375351 0.0547614
000080 05 b3 44 3d 8d 0f 72 3c b8 f0 0e 3c ba 06 fe bd
       0.04802229 0.014774215 0.008724384 -0.12403627
000090 dd 0c 37 3d ac 7f 12 3e 84 a3 21 3d f0 6b c5 bc
       0.04469 0.14306515 0.03946258 -0.02409932
0000a0 50 01 47 3d d5 ed 42 3c de b7 07 3d 42 81 c7 bc
       0.048585236 0.011897524 0.033134334 -0.024353627
0000b0 74 38 45 be 8f 06 d3 bd bf 2b f0 bd db 39 48 3e
       -0.19259816 -0.10303985 -0.11727094 0.1955332
0000c0 d5 80 9e 3d 6d 88 8c 3d 69 c8 4f bd 69 41 d9 3d
       0.077394165 0.06861959 -0.050728235 0.10608179
0000d0 0f d9 12 bb 82 be 40 bd 7f 4f 2d bd 40 70 1f 3d
       -0.002240721 -0.047056682 -0.04231214 0.03892541
0000e0 1b ee 7a bd 0c 3d 51 3d 20 1a 16 bd 08 b5 12 ba
       -0.06126223 0.05108361 -0.03664601 -0.0005596434
0000f0 fa a7 8d bd 58 ce 04 3e 88 c1 73 bb 80 d7 7c 3d
       -0.069168046 0.12969339 -0.003719421 0.061728954
000100 43 70 98 3d 76 0e 40 3c 47 0c 11 3d 08 04 1f 3d
       0.07443287 0.011722198 0.0354121 0.038822204
000110 aa e2 d3 bc 44 c2 1f 3d 8f 42 fd 3d 1e 55 c9 bd
       -0.025864918 0.039003626 0.12366211 -0.09830688
000120 d8 a4 d3 bd 6b ef 27 3d 7e f4 b1 ba a7 6f 12 bb
       -0.10334176 0.04099981 -0.0013576893 -0.0022344382
000130 0c 7c ae 3d 54 d5 30 bd 55 94 5a bd 7c 96 20 3e
       0.08519754 -0.043172196 -0.053364117 0.15682405
000140 ac 1e b0 bc 4e ce 33 3d 9e b6 81 3b 5b f8 2a 3c
       -0.021499 0.04389792 0.0039585372 0.010435189
000150 aa 27 16 bd 0d f8 cc bd 91 70 19 be c4 d3 e7 bd
       -0.03665892 -0.100082494 -0.14984347 -0.11319688
000160 b2 2e e0 bc 88 36 69 bd 10 37 85 bc 60 8e 8f 3d
       -0.027366016 -0.05693677 -0.016261607 0.07009578
000170 c9 cc 21 3e 80 f8 a4 3c f3 9d 2e 3c cc 42 24 3c
       0.15800776 0.020138025 0.010657775 0.010025691
000180 83 a2 c3 3d 79 1a 0f 3e aa 00 0d bd ee fe 19 bd
       0.09552481 0.13974942 -0.03442446 -0.037596636
000190 6c 7f 06 3c 7f 68 e8 3c 26 5b 98 bd 6e f0 ff bd
       0.008209091 0.02837014 -0.0743926 -0.1249703
0001a0 33 f4 8c bc c3 b2 d4 bc 60 6c d0 3c b2 76 0e 3d
       -0.017206287 -0.025964146 0.025442302 0.034781165
0001b0 f6 29 a5 bc e0 24 5e 3d b0 5c 3b 3d 12 71 4b bb
       -0.02016161 0.054234385 0.04574269 -0.0031042737
0001c0 19 2b 3b bd da 84 85 bc 11 99 5a bd b2 d9 82 bd
       -0.045695398 -0.0162987 -0.05336863 -0.06389178
0001d0 aa ea 5d 3d f9 15 a3 bd 10 fd 41 bd e4 63 e5 3d
       0.05417887 -0.07963175 -0.04736048 0.11200693
0001e0 e2 bd 8d 3d a3 32 e7 bc ae 93 8b bc 65 c0 16 be
       0.06920983 -0.028222388 -0.017038193 -0.1472183
0001f0 c3 ef 08 bd 9e d4 51 bd e6 98 e2 bd 68 6b 4c bd
       -0.03343178 -0.05122816 -0.11064319 -0.049907118
000200 42 ef 95 3b b3 98 b5 bc 64 43 2a 3e 8c b2 85 3d
       0.004575641 -0.02216754 0.1662727 0.06528196
000210 60 81 f2 bd e2 b8 c5 bc ff 80 1f 3d 2c 1c 9e 3c
       -0.118410826 -0.02413601 0.03894138 0.019300543
000220 ac bd 4e bc ae c1 1c bd 40 f0 c4 3d 90 96 5f 3d
       -0.0126184635 -0.038270645 0.096161366 0.054586947
000230 21 53 cc bc 65 b2 53 bd 07 54 78 3d 33 72 28 bd
       -0.024941983 -0.051683802 0.06062701 -0.041124534
000240 20 c9 0d bd 98 79 a9 3d 75 7e a8 3d 52 fb 85 bc
       -0.034615636 0.08275145 0.08227245 -0.01635519
000250 ef ad 48 bd 2f 83 55 3d 04 be b1 bc bf 63 16 bc
       -0.048994 0.05212706 -0.021697052 -0.009179055
000260 f8 a7 27 3d 99 b3 44 bb 65 1a 30 3d 35 2c ab bc
       0.04093167 -0.0030014275 0.04299392 -0.020895103
000270 e2 8d 12 bd 6c cd ff bc 79 53 91 bd 38 28 b7 3c
       -0.03577984 -0.031225882 -0.07095999 0.022358045
000280 ba f2 06 be f6 e2 39 be d2 5a e8 bb e9 e2 c3 3c
       -0.1317853 -0.18152985 -0.0070909047 0.02391191
000290 6c ed 18 3d 75 c9 fe 3d 95 30 22 3e 42 3d 66 3c
       0.0373358 0.12440769 0.15838845 0.014052691
0002a0 2f 1a 42 3d 6b 7b a0 bd 44 f9 6b bd cd d6 de 3c
       0.047388252 -0.0783604 -0.057610765 0.027202034
0002b0 8d dd 40 bd 73 12 7f 3d 13 fb 94 3b 35 73 4d 3d
       -0.047086287 0.062273454 0.004546532 0.050158698
0002c0 9a cb 1d bd 46 de b6 3d c9 b1 45 bd 08 58 39 3d
       -0.038524248 0.08929114 -0.048265252 0.04524997
0002d0 c8 91 fb bc 54 87 f8 bc 6d f5 29 3d 44 dc 81 bd
       -0.030709162 -0.030337967 0.041493822 -0.063408405
0002e0 69 e9 80 3d 32 f8 42 3d 8b 1c 3d bd 32 24 eb 3c
       0.062945195 0.04759998 -0.0461698 0.028703783
0002f0 bf fb c6 bd 71 a5 3b bc 51 74 bb bc ea 0f 2b bc
       -0.097159855 -0.0114530185 -0.022882612 -0.010440806
000300 80 e8 86 3d 46 a7 1b bd 92 a6 19 be 66 8d 69 3d
       0.065873146 -0.03800132 -0.15004948 0.057019614
000310 58 ac f9 3c fe 46 eb 3c 2f 1d 8a bd 1e 94 4f bd
       0.030477688 0.028720375 -0.067438476 -0.050678365
000320 85 9f 5c 3d 40 cf 18 bb 82 dd c8 ba 59 2d 00 bd
       0.053863067 -0.002331689 -0.0015324804 -0.031293247
000330 e7 89 c6 bb 47 3e 74 bc b9 7c 21 bd 7f f3 66 bd
       -0.0060589197 -0.014907426 -0.039425585 -0.05638456
000340 10 d8 e2 bc 2e c5 38 bd 9f 10 17 bd b9 c2 12 bd
       -0.027690917 -0.04510992 -0.036881085 -0.035830233
000350 cb e6 e9 3b 15 2b 78 3d 52 cd a9 3d 01 8c 99 bd
       0.0071381084 0.06058796 0.08291115 -0.07497407
000360 e0 78 e0 3c 82 93 0f bd 81 51 1c 3b 64 93 9c bd
       0.027401388 -0.035052784 0.002385229 -0.076453
000370 4a ab f4 3d 12 ae 59 bd 84 cf fd bb a0 9c e5 3c
       0.11946733 -0.053144522 -0.007745685 0.028028786
000380 91 bd d9 bd d4 49 10 bc cf ae 52 bc 60 2e 78 bd
       -0.1063186 -0.0088066645 -0.01285906 -0.0605911
000390 4b 45 90 bb 7c 64 9f bc 80 1f ab bc 35 84 f1 bd
       -0.0044027916 -0.019457094 -0.020889044 -0.117927946
0003a0 b1 e7 15 bd fa 42 00 3e 20 a2 21 bd 5c 61 cc 3c
       -0.03659791 0.1252555 -0.039461255 0.024948768
0003b0 b5 15 90 3b 0c f8 31 3d 9b 53 c6 bd dd d8 e8 bc
       0.004397119 0.043449447 -0.09683915 -0.028423721
0003c0 dc 93 b7 bd 61 f3 2c bd 7e 45 68 bd 5d 17 ef bd
       -0.08963749 -0.04222429 -0.056706898 -0.11674378
0003d0 7e ea 40 bd 4b e1 95 bd e5 5e 6f 3c 4e 34 d8 bd
       -0.04709863 -0.07318362 0.014610027 -0.10556851
0003e0 46 c4 14 3d 55 ca 1f bd a6 c3 dc bc f2 37 1f 3c
       0.036319993 -0.03901132 -0.026948761 0.009717928
0003f0 58 a8 95 3c 37 5a 45 3d 99 2b bb bd 66 f8 05 3d
       0.01826875 0.04818174 -0.09139175 0.032707594

arith.constant2 f4 [64, 64]
000000 63 0d 83 bc 3a c8 8b 3c 9e 56 32 bd a2 c9 01 3e
       -0.015997594 0.017063249 -0.043539636 0.12674573
000010 e7 90 44 bc 1d 6b b5 bd 2a e9 6b 3d 23 5a dc 3d
       -0.011997438 -0.08858321 0.05759541 0.1075938
000020 38 d4 0a 3d ba 22 46 3e 1e 83 e2 bd 42 dd b6 bd
       0.033893794 0.19349185 -0.11060165 -0.0892892
000030 c6 4b 3f 3c da 5d db bd 45 33 04 3e 3a 97 1d 3d
       0.011675781 -0.1071126 0.12910183 0.0384743
000040 a2 c7 e3 3c c5 a8 38 bd d8 92 94 bd 8b 55 29 3d
       0.027805153 -0.045082826 -0.07254571 0.041341346
000050 a4 58 0f bd 32 fd 3e bb 8d 40 c4 bc 0d 4d c0 3c
       -0.034996644 -0.0029142615 -0.023956561 0.02347424
000060 fc a9 92 3b ec 91 2a be 52 23 00 3d 3d 07 d2 bc
       0.00447583 -0.16657227 0.031283684 -0.025638217
000070 d5 40 b2 3d 83 1d 38 3d 57 2c 7e bd 4d 59 c0 3d
       0.08703772 0.04495002 -0.062054005 0.09392033
000080 90 0b 88 3c 78 92 83 bd 45 a7 0c 3b 14 f3 a5 3d
       0.016607076 -0.06424421 0.0021462005 0.08103004
000090 f2 38 92 3d c7 f6 48 bd b7 95 04 39 58 41 c0 bd
       0.07139768 -0.04906347 0.00012644274 -0.09387463
0000a0 87 bd 90 bd 30 69 94 bc 15 ea 5c bd a2 73 10 bd
       -0.070673995 -0.018116564 -0.053934176 -0.035266526
0000b0 7a 73 a4 bd 8a 79 b0 3d 38 55 84 bc 07 29 25 3d
       -0.08029838 0.08616932 -0.016153917 0.04032233
0000c0 81 34 e3 3c 64 74 8b bb 9f fd ad bd 71 a4 85 3d
       0.027734997 -0.004255818 -0.0849564 0.06525505
0000d0 22 b1 32 bd 65 29 f3 bd 03 8a b6 3a 92 e4 53 bc
       -0.04362596 -0.1187313 0.0013926629 -0.012932913
0000e0 20 77 43 3c 83 10 b5 bd dc 96 97 3d 47 5c 31 bd
       0.011930257 -0.0884104 0.07401821 -0.043300893
0000f0 a2 d5 dc bd 13 2e 04 be 97 8b 34 bc 56 02 79 3d
       -0.10782935 -0.12908201 -0.011019609 0.060793243
000100 f7 ac 6b bc b6 59 aa 3d 61 c6 10 bd 58 b3 be 3d
       -0.0143845 0.08317892 -0.03534544 0.09311551
000110 88 31 2d bd b3 75 90 bd 8d 1b b2 bc 21 d3 35 3d
       -0.042283565 -0.07053699 -0.021741653 0.0443908
000120 80 26 99 bd 28 4e 9d bb 75 b7 fa bd 40 9d 72 bd
       -0.074780464 -0.0048005767 -0.12242023 -0.059231997
000130 ca bd a9 bd 7b b4 fb 3c b5 01 d2 3d b7 a8 20 bc
       -0.082881525 0.030725708 0.10254232 -0.00980585
000140 8a 33 ea bd 4c 0f e6 bd b1 48 f7 3d a8 6b a8 3d
       -0.114356115 -0.112333864 0.12074412 0.08223659
000150 0d 55 8d bd a1 c1 80 bd ad 3c 7a bd 47 f3 29 3c
       -0.06900988 -0.06286932 -0.06109302 0.010372943
000160 22 9d 09 be 86 3f 99 bb 32 1e a7 bd 3e 82 5b bc
       -0.13438848 -0.004676762 -0.08160056 -0.013397751
000170 0a 4e 05 bd c9 21 02 be fd 17 14 3d f4 0c 8c bd
       -0.032545127 -0.127082 0.03615569 -0.06838408
000180 a9 9b 8c 3d dc 58 0f 3d 9d 3f 70 3c d5 81 90 3c
       0.06865627 0.034996852 0.014663604 0.017640034
000190 34 13 20 bd 0f f0 1b 3e 65 3c f5 3d d6 00 25 3d
       -0.039080814 0.15228294 0.1197441 0.040284
0001a0 be dd 1a 3d 4c be a2 bd c5 af 69 3d 44 58 dd bd
       0.037809126 -0.079464525 0.057052393 -0.10807851
0001b0 04 2c 80 bc 30 87 d3 3c db a6 53 bd e6 8d 4f bd
       -0.015645988 0.025821298 -0.051672798 -0.050672434
0001c0 47 8c 35 bc 2c d5 10 3d 6d 33 30 bd b7 57 4f bd
       -0.011080808 0.035359547 -0.043017793 -0.05062076
0001d0 28 f7 70 3b a9 8d 0b 3c c7 75 80 bd 5f ff 8f 3d
       0.003676841 0.008517661 -0.06272464 0.0703113
0001e0 bd 80 60 bd 35 da 0d 3d 1c f7 db 3d 34 08 c7 bd
       -0.054810274 0.034631927 0.10740492 -0.097183615
0001f0 bf ea ec bc 01 f9 30 3d b6 5a 1a be 1a 0e 2e 3d
       -0.02892053 0.04320622 -0.15073666 0.042493917
000200 c9 fe 6e bd 07 b4 20 bd 7e 76 05 3d 8b 67 ec 3d
       -0.05834845 -0.039234187 0.032583706 0.11543187
000210 27 6e e6 bc 1c 5e ba 3d d2 79 2b 3d c3 c0 ef bb
       -0.028128697 0.09099981 0.041864224 -0.00731668
000220 2c 2d ac bb 24 c2 27 3d 64 dd 13 3d 86 cb 4b 3d
       -0.0052544083 0.04095663 0.036099806 0.049754642
000230 16 e0 bf 3d 7d 73 0f bc 2a 39 c5 bd 4d d1 f4 bb
       0.09368913 -0.008755562 -0.09630044 -0.0074712397
000240 8e 1d 51 bd b7 48 9c 3a 8f bf 24 3d 47 0e 8b 3d
       -0.051053576 0.0011923526 0.040221747 0.067898326
000250 b6 f6 1e 3c 15 ae 15 3d c7 b7 fc bd 28 aa e8 bc
       0.009702375 0.03654297 -0.1233974 -0.02840145
000260 5b 9b a7 3d 06 06 86 bd 33 4a 26 3d be 67 a9 3d
       0.081839286 -0.06544118 0.040598106 0.082717404
000270 bc 25 1b bc 5c 47 52 bd 69 84 20 be f0 1e 81 bd
       -0.009469446 -0.051337585 -0.1567551 -0.06304729
000280 a1 80 db bc 1d 91 1c bd b2 63 96 bb d3 89 4f bd
       -0.026794733 -0.03822433 -0.0045895213 -0.05066855
000290 f7 1d 4e 3d 25 45 0d 3c 11 6b 70 3c c4 03 31 ba
       0.050321545 0.008622442 0.014673964 -0.0006752575
0002a0 0c f6 9f 3b e5 83 94 3c b6 5b be bb ad 90 00 3b
       0.004881626 0.018129298 -0.0058092726 0.0019617483
0002b0 2e be 83 bd 76 8e ec 3d ec ff 0d bc 02 ce 81 bd
       -0.06432758 0.1155061 -0.008666974 -0.06338121
0002c0 81 b3 f7 3b 17 b1 c5 bb 4e 75 a6 bd 57 39 7f 3d
       0.0075592403 -0.0060330736 -0.08127843 0.062310543
0002d0 a3 c6 e4 bd 95 e6 51 3d 8e e7 0a bd 4e 92 4b bd
       -0.111706994 0.05124529 -0.033912234 -0.049700074
0002e0 5b 75 27 3d a1 98 54 bd 23 3c 1e 3c 52 f0 50 bd
       0.040883403 -0.05190337 0.009657892 -0.051010437
0002f0 e7 ef 45 3a e3 42 de bd 74 f3 8f 3d d9 80 82 3d
       0.0007550702 -0.108526014 0.07028857 0.06372232
000300 59 5a cf 3c ed 1d 7e 3d 14 58 99 ba cd 69 6b 3d
       0.025311636 0.06204026 -0.0011699223 0.057473946
000310 7e c1 79 3d af bc 1e 3a f8 9d cb bc 0a 72 9e 3d
       0.060975544 0.0006055338 -0.024855599 0.07736595
000320 e0 c8 dd 3c 1c db 57 3c d2 69 d3 bc d5 22 ae bc
       0.027073324 0.013174798 -0.025807295 -0.021256844
000330 8d 93 61 bd 24 bc b1 bd 60 56 0c 3e 86 1b 6b bd
       -0.055072356 -0.08678463 0.13704824 -0.057399295
000340 99 42 22 3d cb fd b2 bc 22 6c ed bc 8b 5e 6c 3c
       0.039614294 -0.021849534 -0.028982226 0.014426838
000350 ce e3 b5 3c e1 ad 5b 3d 6c 95 99 bd a1 c9 02 3e
       0.022203352 0.05363262 -0.07499203 0.12772228
000360 b1 9c 96 bc cd 7d 33 bc 91 b0 d1 bd d8 46 a7 3d
       -0.018385263 -0.010955286 -0.102387555 0.08167809
000370 7e fa 0f bd ca 59 c0 3d b1 9e 6d 3c d9 8b 8c bc
       -0.035150997 0.09392126 0.014503167 -0.017156528
000380 f2 23 03 be 53 75 62 bc 3b 13 31 bd 81 b3 01 be
       -0.12806681 -0.013821918 -0.04323123 -0.12666132
000390 f2 ae 06 bd 9c 55 43 3e af 1c ed bd 03 f7 4c bb
       -0.032881685 0.19075626 -0.115777366 -0.003127516
0003a0 fc e9 68 3d 82 b3 40 3d 1d cb a2 bc 54 3e 64 3d
       0.05686377 0.047046192 -0.019872243 0.055723503
0003b0 92 b9 cb 3d 80 4c bd bc 23 fe 1f be 72 29 06 be
       0.09947504 -0.023107767 -0.15624289 -0.13101748
0003c0 76 27 86 3c 7e e0 9c bd 51 fc a5 3c d6 75 98 bd
       0.016376238 -0.07660006 0.020261915 -0.074443504
0003d0 9e 9f 31 bc a5 8f f9 ba 0d da cb 3d 56 44 a4 3d
       -0.010841278 -0.0019040002 0.09953699 0.080208465
0003e0 31 d6 a5 3d e3 21 5e bb e5 0b 9a 3b e1 c5 a4 bc
       0.080974944 -0.003389471 0.004701125 -0.020113887
0003f0 62 d6 a8 bc 1e 8b 0f 3e aa 7c e1 3c 79 b9 45 bd
       -0.020610038 0.14017913 0.027525265 -0.048272584

arith.constant3 f4 [64, 64]
000000 80 b9 36 3c 14 f9 f5 3c 2e 15 61 3d 42 74 94 bd
       0.011152625 0.030025996 0.05495184 -0.07248737
000010 34 3e 95 3c e4 58 09 3d 64 59 07 bd 24 dd c3 bd
       0.018218137 0.03353204 -0.033044234 -0.095636636
000020 43 60 aa bd 08 e4 72 3d ea 62 dd bd a2 9b 85 3d
       -0.08319142 0.0592995 -0.10809882 0.06523825
000030 a7 db e7 3c dc 70 68 3c 13 5c 57 bd 8e 24 33 bd
       0.02830298 0.014187064 -0.052578043 -0.043736033
000040 a6 54 99 bd a6 ce 7d 3c 45 55 ff bd af f2 01 be
       -0.074868485 0.015491163 -0.12467436 -0.12690233
000050 42 9e 4c 3d 71 4e aa bd 9d 96 0f bd e7 32 6e bd
       0.049955614 -0.08315743 -0.035055745 -0.058154013
000060 89 6d af bc d8 62 2f bd ba 3f c2 bd e1 7f 2f bc
       -0.021414535 -0.042818874 -0.09484811 -0.010711641
000070 28 8e 81 3d 43 5d 86 3c ee d6 e4 3c 46 51 27 3d
       0.06325942 0.016401893 0.027934518 0.040848993
000080 fb 32 a3 bc 96 b8 03 3d a2 52 ce 3c e6 4f c5 bc
       -0.01992177 0.032158457 0.025185887 -0.02408595
000090 a9 99 a2 bc 98 de c3 3d eb 11 db 3c d7 03 d8 3d
       -0.019848661 0.09563941 0.026741942 0.105476074
0000a0 ad 5e a9 3d c7 80 9d bb 3a e4 24 3e 75 8d ec 3d
       0.08270011 -0.004806611 0.16102687 0.11550418
0000b0 6c fe f6 bd 0d 63 68 3c 36 d4 be 3d 99 3a 1e be
       -0.12060246 0.014183772 0.0931782 -0.1545204
0000c0 cb 1b a1 3c 01 b9 4a bd 2a b5 87 bd 54 7d 25 bd
       0.019666573 -0.04949284 -0.06626351 -0.040402725
0000d0 5f 10 43 3c 87 7b a5 ba 34 a6 df 39 42 7a 7e 3c
       0.011905759 -0.0012625315 0.00042657705 0.015532078
0000e0 88 d9 ee 3c 09 87 6f 3c b8 66 9e 3b f4 88 71 3d
       0.029156461 0.014619597 0.0048340224 0.0589685
0000f0 54 79 26 bb ec 1f db bc f9 76 d4 3d 21 a9 bd bc
       -0.0025401907 -0.02674862 0.10374255 -0.023151936
000100 a9 e8 dd 3d 49 4b bc bc 19 1b 98 bd de c2 a1 3d
       0.10835392 -0.022985118 -0.074270435 0.07898496
000110 bf c5 10 bc 55 32 df 3b cd 4e b3 bd 69 0f 13 bb
       -0.008836209 0.00681142 -0.087552644 -0.0022439605
000120 78 11 aa bd 6c b6 f8 bc 85 b1 8c 3d 83 cd e9 3d
       -0.08304113 -0.030360423 0.06869797 0.114161514
000130 d2 89 64 3c 91 b0 cf 3d 24 b1 c3 3d 4d 1a 1c 3c
       0.013948875 0.10141099 0.09555271 0.009527755
000140 39 f5 dc 3c 4e 98 8d 3c a9 d8 03 3e 5b e2 56 bd
       0.0269724 0.017284539 0.12875618 -0.052461963
000150 8a 2b de bc 6d e1 ac bd ad 28 05 3d ac 5c c3 3d
       -0.02712037 -0.08441434 0.032509495 0.0953916
000160 db 68 dd 3c 1b 8b e1 3d 50 2d 8c 3d 1b b1 9d 3c
       0.027027538 0.110128604 0.0684458 0.01924949
000170 26 44 3e bc 69 26 4c 3d 38 34 0e 3d 42 3e c1 bd
       -0.011612928 0.04984132 0.03471777 -0.09435703
000180 89 4d 0f 3e eb 54 57 be 1c 33 3f 3c 35 de 23 3d
       0.13994421 -0.21028487 0.0116699 0.040006835
000190 9d 93 36 3d 91 c2 7d bd 82 a5 36 bd e9 63 32 3c
       0.04457437 -0.06195313 -0.044591434 0.010888078
0001a0 8d fe 48 bd ff 2f b8 bc 0e e4 1d 3e 48 a7 46 bd
       -0.049070884 -0.022483824 0.15419027 -0.048499376
0001b0 80 96 f1 bd 1c 3b 92 bc 75 fe be bc 53 fc d1 bd
       -0.11796284 -0.017850451 -0.023314694 -0.10253205
0001c0 29 b0 21 3d 95 a8 de 3d 4e 7a 83 3d 20 e0 b6 bd
       0.03947464 0.10871998 0.06419812 -0.08929467
0001d0 df 8c 83 bd e7 32 b7 3d 31 71 1b bc 1c 79 ae bb
       -0.064233534 0.08945256 -0.009487436 -0.005324496
0001e0 72 d7 40 3d b0 c5 92 3c 2a 9d 17 3d f0 5b fb 3b
       0.047080465 0.01791653 0.037015118 0.007670872
0001f0 18 59 e9 bc bc c0 70 3d 86 a4 75 bd 7d 08 9a bd
       -0.028484866 0.058777556 -0.059971355 -0.0752115
000200 fb 89 0b bc b4 51 13 3d e2 f7 b9 3d 92 44 54 3c
       -0.008516784 0.03596659 0.09080483 0.012955802
000210 9c 7b 1a 3e ec 26 b6 bc 0f 5a 99 3d e2 21 6c bd
       0.15086216 -0.022235356 0.074878804 -0.0576495
000220 dd 0a d2 bd 58 13 8f 3d be 8b 63 3c 4b f7 68 3d
       -0.10255978 0.069861114 0.013888298 0.056876462
000230 dc fe af bc fa 17 1c bd f9 0b a0 bc ad f3 ae 3d
       -0.021483831 -0.038108803 -0.019536959 0.08542571
000240 f3 f6 e3 3c e6 4d 33 bd fe 15 8d 3c 50 68 9f bd
       0.027827716 -0.04377546 0.0172224 -0.07783568
000250 74 70 b8 3c ff af 44 3b 77 2d 6a bd 46 0a 53 3c
       0.02251456 0.0030012128 -0.057172265 0.012880867
000260 f2 62 08 3e 1b c2 8d bc ef af 9c 3d 9e 43 e7 bc
       0.13318995 -0.01730447 0.07650744 -0.028230485
000270 0f 98 d3 3c 07 a2 48 bd 43 f0 ac bd 46 c8 04 bc
       0.025829343 -0.048982646 -0.08444264 -0.0081043895
000280 43 fc d5 3c ce ba b2 3c 16 48 af 3d 34 ea a8 bd
       0.026121264 0.021817591 0.08558671 -0.08247796
000290 d0 dd ac 3b 5c 45 b0 bb 88 ee 15 3d 9e 3d 27 3d
       0.0052754655 -0.005379362 0.036604434 0.040830247
0002a0 4d 0f 80 3b 02 24 ff 3d 8b b3 8a bc a9 b6 ce bd
       0.003908074 0.1245804 -0.016931316 -0.100934334
0002b0 06 4a a4 3d 04 23 1b be ea 9c 50 3e ec 02 70 bd
       0.08021931 -0.15150076 0.20372358 -0.058596537
0002c0 1d 64 8f 3d 3c c7 26 bc 89 27 01 3d fb 9c bb 3a
       0.07001517 -0.010179337 0.031531844 0.0014313752
0002d0 17 e3 eb 3d ee 6d 51 3c ee 1f 08 3e 1b 78 49 bd
       0.11517923 0.012782557 0.1329343 -0.049186807
0002e0 ba e0 1b bc 09 0e ab 3d 17 f6 34 3d 93 fb 43 bd
       -0.009514028 0.08352286 0.044180002 -0.04784734
0002f0 3a d3 f0 3c 92 9a 13 bd 95 47 53 3d 3e 84 fe 3c
       0.029397596 -0.03603608 0.051581938 0.031068917
000300 02 2c 89 bc c2 c3 54 bd dc 18 2c bd 4f 1d 8a 3c
       -0.016744617 -0.0519445 -0.042015895 0.016859679
000310 41 4f d9 bc d3 0c b6 3c cd a8 ad bc 58 ad 62 3c
       -0.026527049 0.022222912 -0.021198655 0.013835274
000320 3a 96 43 3d 9b 35 31 bd cd 3a a1 3c c7 b7 44 3c
       0.04775069 -0.043264013 0.019681359 0.012006707
000330 74 78 90 bd 20 33 98 bc 70 67 67 3c aa 85 4c bd
       -0.070542246 -0.018579066 0.0141237825 -0.04993216
000340 e2 5a 01 3e 8a 34 4d bd 0b 1f 5a 3d 03 ff 65 3d
       0.12632325 -0.050098933 0.05325226 0.0561514
000350 8d b4 98 bc 7d a0 d4 bd ce 74 f5 bd e6 61 9a bd
       -0.01864078 -0.10382173 -0.11985169 -0.07538204
000360 be be 1d be 98 1a d1 bc 7b 58 af bd 81 4e ef bc
       -0.15404794 -0.025525376 -0.08561798 -0.029212238
000370 dc 5c 64 bd 29 1d 3b bd d8 f4 a5 3d 07 37 89 3d
       -0.05575262 -0.045682106 0.08103341 0.06699949
000380 7f 19 b2 3d 2d c8 7e 3d d7 b7 24 bd 73 2e 79 3d
       0.08696269 0.06220262 -0.040214386 0.060835313
000390 2b 34 1a 3c 57 41 36 bd e4 90 a9 bd f0 ff 90 3b
       0.009411852 -0.044495907 -0.08279589 0.0044250414
0003a0 39 b6 0f bd d6 b1 fb 3c e4 70 61 bd 44 08 18 bb
       -0.03508589 0.030724447 -0.0550393 -0.0023198286
0003b0 28 3e 1e bd f9 38 8b 3d 5f ac 15 bd 23 d6 42 3d
       -0.038633496 0.06797976 -0.03654134 0.047567498
0003c0 64 a5 70 bd 31 b0 38 bc a3 98 df 3c 25 a6 d1 bd
       -0.05875148 -0.011272476 0.027294463 -0.10236768
0003d0 39 84 a7 3d 91 52 04 3e 2b d9 09 3d 2e 36 ad bc
       0.08179516 0.12922122 0.033654373 -0.021143999
0003e0 0d ac 24 3d 31 02 b1 bd 0f b9 94 bd 56 cb 16 3d
       0.040203143 -0.08642996 -0.072618596 0.03681501
0003f0 b1 6b 44 3c 7b 94 05 bd fa ee 17 3c 03 4f 2b 3d
       0.011988566 -0.032612305 0.009273285 0.0418234

arith.constant4 f4 [64]
000000 c1 27 72 3b f7 60 f8 3b f9 de 10 3d 50 bc fc 3b
       0.0036949965 0.0075799185 0.035368893 0.0077128783
000010 a5 c6 88 3b 54 2e 08 bc 87 c3 5f bc 10 af a4 bb
       0.004174071 -0.008311827 -0.013657457 -0.005025752
000020 00 fa cd 3b c3 b6 7a bb 65 57 56 3c c9 d4 11 3c
       0.006285906 -0.0038255907 0.01308236 0.00890083
000030 67 b0 8b 3c ba 44 89 3c 74 b4 8a 3c 93 a8 da bb
       0.017051889 0.016756404 0.01693175 -0.0066729276
000040 ff cd 0c bc 0f d9 cb 3c 7d e9 5d bc e8 fa 09 3c
       -0.008594035 0.024883775 -0.0135444375 0.008421637
000050 cb cf 8d 3c 9d 2c 14 b9 16 c9 e1 bb db bf ec bc
       0.017310997 -0.00014131 -0.0068904264 -0.028900078
000060 aa 92 da 3c 15 e6 48 3c 08 ba c5 3b 0e 5e 7f bb
       0.026681263 0.012261887 0.0060341395 -0.0038965973
000070 32 94 fd 3b d2 76 1f 3c e5 18 33 bc 97 14 d6 3b
       0.0077386135 0.009732919 -0.010931228 0.006533216
000080 e6 92 80 3c 60 61 a5 3c fa d5 8c 3c 07 77 d5 3c
       0.015695047 0.020188034 0.017191876 0.026057733
000090 d3 f8 1f 3c e7 8d b1 bb 4b 14 09 bb b2 5b fa 3c
       0.009763914 -0.0054185274 -0.0020916637 0.030561302
0000a0 a0 63 03 bc 36 11 b0 3c 86 e2 90 3c 0b a3 f9 3b
       -0.008019358 0.021492582 0.01768614 0.007618313
0000b0 66 f1 91 3c cd cf f8 3b 84 b3 6d ba fc 70 27 bb
       0.017815303 0.007593131 -0.00090675824 -0.0025549522
0000c0 f1 87 3b 3c e5 9e e2 3c b9 6d 89 bc c5 d9 49 ba
       0.011445985 0.027663657 -0.016775953 -0.00076999917
0000d0 7d a4 ee 3b 75 d1 6d 3c 63 e3 8e 3c 91 2b d2 3b
       0.007282792 0.0145152705 0.01744241 0.006413885
0000e0 07 6f 24 3c 92 c6 15 3b 88 6e 22 3c f5 0a 0f 3c
       0.010036237 0.0022853953 0.009914048 0.00873064
0000f0 38 3e fb 3b 16 7c f2 bb 9f d8 e2 3c 05 f0 5d bb
       0.007667329 -0.007400046 0.027691184 -0.0033864987

arith.constant5 f4 [64]
000000 a9 c9 0c 38 c8 8c 65 3c 7f 02 31 3b 60 53 57 bb
       3.356641e-05 0.014010616 0.0027009544 -0.0032856092
000010 ff 17 4a bb 4a 48 0b bc b6 56 eb 3b 66 2e aa ba
       -0.0030837057 -0.008501122 0.0071819676 -0.0012983799
000020 4b 36 3b 3b 3b 6b 7d b9 a7 8e 23 ba ca 54 8a 3c
       0.0028566297 -0.00024167907 -0.00062392134 0.016886134
000030 25 cb 0a bb ff da ac bb 6d 5f 26 bc 1f 0f 67 3b
       -0.0021178212 -0.00527513 -0.010154587 0.0035256816
000040 da 80 82 bc e9 56 7f 3b d8 81 e4 3c 59 a9 89 3b
       -0.015930582 0.0038961715 0.027893946 0.004201096
000050 c5 17 15 3c 88 8d b8 3c 16 9f e4 3b 3a 1e 00 bc
       0.009099905 0.022528425 0.0069769723 -0.007819707
000060 9e c8 7b 3c 18 aa 89 bc 77 d5 fd bb 8d c4 24 3c
       0.015367655 -0.01680474 -0.0077463943 0.010056627
000070 82 56 d3 bb 0c eb 3a bc 84 f0 35 bb 70 aa 78 39
       -0.0064495215 -0.011408579 -0.0027761767 0.00023714616
000080 11 d9 0a 3b c5 3c 8b bc 8f 16 28 bc d0 18 10 bc
       0.002118651 -0.01699675 -0.010259285 -0.008794978
000090 d6 c8 7b ba 91 d7 10 3a bc 1d 05 bc 2c 0f 1e 3c
       -0.0009604817 0.0005525286 -0.008124765 0.009647172
0000a0 83 ff 8f bb d7 89 0f 3c 29 13 5a ba 74 ba 5a 3c
       -0.004394473 0.008760891 -0.0008318895 0.013350118
0000b0 2c 47 a0 bb f0 5f 8b 3a cb c0 93 3c 2c d4 c6 3a
       -0.004891297 0.001063345 0.018036267 0.0015169433
0000c0 86 87 84 3b 12 57 35 3a 94 df 18 bc 70 e9 1c 3c
       0.004044476 0.00069175765 -0.009330649 0.00957714
0000d0 4d 59 4d bc 18 4b 2a 3c c3 5c 18 3a d1 d1 83 3a
       -0.012533498 0.01039388 0.00058121624 0.0010057037
0000e0 8c 6b 4d 3b 55 0f a0 bc 1a f2 34 bb 4e 7d 7b 3c
       0.003134462 -0.01953856 -0.0027610124 0.015349699
0000f0 3b ec be bc 04 3a 8d ba b6 8f 9b 3c 9d e1 0e 3c
       -0.023306003 -0.0010774736 0.018989425 0.008720783

arith.constant6 f4 [64]
000000 2c da 81 3f b6 c7 7d 3f 28 6f 81 3f fe 31 7e 3f
       1.0144706 0.9913286 1.0112047 0.9929503
000010 b2 e1 80 3f 71 45 7f 3f 2d 61 7d 3f c6 6e 80 3f
       1.0068877 0.99715334 0.98976403 1.0033805
000020 ec e0 7f 3f 8d 7e 7f 3f d6 85 80 3f c4 cb 7c 3f
       0.9995258 0.99802476 1.0040843 0.9874842
000030 7c 5c 81 3f 1c a2 81 3f d1 20 7e 3f 7b 9c 7f 3f
       1.0106349 1.0127597 0.99268824 0.99848145
000040 8e 67 80 3f 6e 81 80 3f 34 1f 7b 3f 4b e3 81 3f
       1.0031602 1.0039499 0.9809449 1.0147489
000050 12 d7 7f 3f c6 f8 80 3f 80 77 7d 3f 9d 05 80 3f
       0.99937546 1.007592 0.9901047 1.0001713
000060 d0 ba 82 3f e1 8a 80 3f ce e4 80 3f e3 0f 80 3f
       1.0213261 1.0042382 1.0069826 1.0004848
000070 95 55 7e 3f 20 67 7f 3f 80 25 7f 3f 89 28 81 3f
       0.9934934 0.9976673 0.99666595 1.0090495
000080 f2 ab 7d 3f 67 e8 82 3f ef aa 81 3f 35 89 84 3f
       0.9909049 1.0227174 1.013029 1.0354372
000090 26 3f 80 3f 2c c6 80 3f 90 8a 81 3f 8e 02 80 3f
       1.0019271 1.0060477 1.0120411 1.000078
0000a0 ee 5c 80 3f cc 40 81 3f cc be 81 3f 8d 48 7d 3f
       1.002836 1.00979 1.0136352 0.9893883
0000b0 60 66 7d 3f f5 35 81 3f 21 d1 7e 3f e3 be 80 3f
       0.98984337 1.0094591 0.99537855 1.0058254
0000c0 90 58 7d 3f 76 93 83 3f da 17 7f 3f 3a a1 80 3f
       0.9896326 1.0279377 0.9964577 1.0049202
0000d0 7f 9a 80 3f 5a 98 7d 3f d8 c7 80 3f 30 63 80 3f
       1.0047148 0.99060595 1.0060987 1.003027
0000e0 21 e4 80 3f 37 04 81 3f b6 d2 81 3f 10 27 7f 3f
       1.006962 1.0079411 1.0142429 0.9966898
0000f0 a6 02 82 3f d7 8f 80 3f 36 18 7f 3f 2e fd 7e 3f
       1.0157058 1.0043896 0.9964632 0.9960507

arith.constant7 f4 [64]
000000 23 25 3c 3c f0 1a 7c bc ec a6 d8 bb 88 48 87 bc
       0.011483463 -0.015387282 -0.0066116955 -0.016514078
000010 d8 a8 37 3c 2f ec 51 bb d4 16 22 bc 50 c1 70 bc
       0.011209689 -0.0032031646 -0.009893138 -0.014694527
000020 51 8e 18 3c d9 5e 63 bb 32 ab fb 3b 40 84 35 3c
       0.009311275 -0.0034693985 0.00768032 0.011078894
000030 a8 44 31 3c 28 6f b2 3b ab be 42 3c 10 d7 82 ba
       0.010819592 0.0054453798 0.011886279 -0.0009982307
000040 09 92 f4 bb 6a 1d 6d 3c 9c be 29 3b 3f 1d 29 3c
       -0.007463698 0.014472345 0.0025900966 0.010321914
000050 f0 b1 bd bb 3b f2 05 3d 9e d4 2f 3c 12 00 ce 3b
       -0.005789034 0.032701712 0.010731844 0.0062866295
000060 e2 f0 de 3c 48 aa 8c bc 1c 92 e2 3b 70 05 95 3b
       0.027214471 -0.01717104 0.0069143903 0.0045477673
000070 a5 5d 67 bc 81 a2 b1 ba 1a 24 31 3c 4b 1f b3 3a
       -0.014121448 -0.0013552458 0.01081183 0.0013665942
000080 fb a3 a8 bc 7c 64 3c 3c 9d 0e 80 bb 1d 76 2e 3c
       -0.020586004 0.011498567 -0.003907992 0.010648278
000090 8c 6b 08 bc 09 f6 9d 3b 08 90 80 bc fc 23 62 3c
       -0.008326422 0.0048205894 -0.01569368 0.013802525
0000a0 02 6d 84 bc f3 ab dc 3b e2 6e 36 3c 14 e5 31 bc
       -0.01616526 0.006734365 0.011134835 -0.010857839
0000b0 1c e7 e3 3b 5e 22 72 bc e5 97 63 bb 04 15 1e bb
       0.0069550406 -0.014778702 -0.0034727987 -0.0024121413
0000c0 00 c8 34 bb 33 e7 50 3c d4 7c 36 3b ec 02 78 3a
       -0.002758503 0.012750435 0.00278454 0.00094608846
0000d0 e4 dd 82 3c f3 8f ed bb 71 26 1a 3c 02 f3 5d 3c
       0.015974946 -0.007249826 0.009408579 0.013546707
0000e0 fd dc 43 bb 0a f1 17 3c a6 78 2a bc b7 28 3f bc
       -0.0029886358 0.009273777 -0.010404741 -0.011667422
0000f0 50 58 47 3b 52 bc 47 bb 05 d6 36 bc 78 88 10 3c
       0.0030417629 -0.0030477238 -0.011159425 0.008821599

arith.constant8 f4 [64, 432]
000000 16 32 d9 3d 8a 5f de bc 9a d7 a8 3d b4 22 a4 bd
       0.10605256 -0.027145166 0.08244248 -0.080144316
000010 a2 4d 83 3d ff 73 01 bd 59 36 37 3d 89 88 5f bd
       0.06411292 -0.031604763 0.044729564 -0.05457357
000020 45 d2 44 3c c4 15 2a 3d aa 02 84 bd 92 e6 94 3d
       0.012013023 0.041524664 -0.06445821 0.0727054
000030 74 ed aa 3c 01 28 01 bb 35 83 a7 bd af 9e 38 bd
       0.02086518 -0.0019707682 -0.08179323 -0.045073207
000040 c7 83 86 bc 03 77 93 3d 9f dc a1 3d 28 89 1a 3c
       -0.016420258 0.07200434 0.07903408 0.009432115
000050 1b bf 1b bd 3e 65 cd bc d8 73 03 3d 50 0d d8 bb
       -0.03802405 -0.02507269 0.0320929 -0.006593384
000060 51 bc 7b bd 3b c5 2c bc 10 1a ba 3c db d1 19 bd
       -0.06145889 -0.01054507 0.022717506 -0.03755365
000070 4f 78 95 3c ad 32 81 bc f9 b2 3c 3d 8c 62 9f bc
       0.018245844 -0.015771234 0.04606912 -0.01945617
000080 6c d1 56 bd fc c3 e2 3c a7 de c0 bc d0 af 4a 3d
       -0.052445814 0.027681343 -0.023543669 0.049484074
000090 b7 60 4c bc 1f f4 7c 3d 31 39 8d 3d 5c 7e fb bc
       -0.0124742305 0.06175625 0.06895674 -0.030699901
0000a0 71 18 d6 3d 9e 10 b9 ba 60 82 65 bd c0 42 56 bb
       0.104538806 -0.0014119332 -0.05603254 -0.0032693595
0000b0 d4 32 07 3c 0e a3 b1 3c 9e d8 ba bd f0 5d 9d 3b
       0.008251864 0.021684196 -0.09123348 0.004802458
0000c0 ff 67 37 3d e4 1d 84 bd 18 ef 1f 3d e8 98 02 bd
       0.044776913 -0.06451014 0.039046377 -0.031884104
0000d0 6f ae 54 bd dc db 98 3d bd 9a 37 3c 44 2e d8 3c
       -0.051924165 0.0746381 0.011206326 0.026389249
0000e0 55 a5 8c 3d 6b 17 db 3d 33 93 e3 3b 10 1d 09 3c
       0.06867472 0.10697826 0.0069450377 0.008368745
0000f0 50 f8 0a bd 90 d4 aa 3d db 3f 5e bd 0b 65 8e bd
       -0.033928216 0.08341324 -0.054260116 -0.06952866
000100 29 74 d9 3d 12 7b 80 3c eb d8 d6 ba 70 fd c5 bc
       0.10617859 0.015683684 -0.0016391551 -0.0241687
000110 31 e5 ba 3d 47 d5 86 bd 3b 79 9e bc d0 b0 7a 3d
       0.09125746 -0.06583648 -0.019344917 0.061203778
000120 d1 28 84 3d 57 be b4 bc 3d 5f 04 3d 58 ed 2e 3c
       0.064530976 -0.022063417 0.03231739 0.010676704
000130 d3 5e ef bc 11 a6 ba 3d 5a a7 b9 3d ad 1a 5d bd
       -0.02922002 0.09113706 0.09065123 -0.053980518
000140 65 f1 20 bd e3 95 22 3d 00 56 dd ba 73 b3 22 bd
       -0.03929271 0.039693724 -0.0016886592 -0.039721917
000150 84 d7 24 3d 60 01 27 3d 79 2b 8d 3d 51 f1 e8 3c
       0.040244594 0.040772796 0.068930574 0.028435381
000160 de ce 2b bd 91 77 48 3c 0f 8a d8 bc 81 d3 8e bc
       -0.04194533 0.012235538 -0.026433019 -0.017434837
000170 d6 fc 9a bd 80 59 80 3c 4a 4d a1 3d 03 a8 e4 bc
       -0.07567756 0.015667677 0.0787607 -0.027912145
000180 e8 ad 14 3d ab 52 14 bd c9 dd f3 3c 15 77 a0 3d
       0.036298662 -0.03621165 0.029768841 0.07835213
000190 ca 62 b6 3d 74 d5 11 3d ae 40 bc 3d 01 1b 89 bd
       0.08905561 0.035603955 0.09192024 -0.06694604
0001a0 9b 25 3e bd 5e 10 87 bd 80 12 8c 3b 87 67 b7 3d
       -0.046422582 -0.06594919 0.0042746663 0.08955293
0001b0 d1 03 f2 3a 2c aa 17 bd dc 70 81 3d 4e 30 d7 3d
       0.0018464272 -0.037027523 0.06320354 0.1050726
0001c0 3e 75 0e bd a4 d5 86 3d d5 ee 92 bd ae 9c 0c 3d
       -0.03477978 0.065837175 -0.0717446 0.03432911
0001d0 13 09 3e 3d 7d ef 3d 3d 4c b9 d4 bc 6c 98 72 3d
       0.046395373 0.046370972 -0.025967263 0.059227392
0001e0 95 45 e8 bc 75 35 5f bd ed f2 2f bd f3 77 c8 3d
       -0.028353492 -0.05449434 -0.04295628 0.097885035
0001f0 08 2e 9a 3c 8b ee a8 bd 28 9a 99 bc 50 7a 5d 3b
       0.018820778 -0.082486235 -0.018750265 0.0033794828
000200 4f e0 f9 bc fc 75 56 3c 28 f9 29 bc 34 20 b1 3d
       -0.030502466 0.013089653 -0.010374345 0.086487204
000210 91 ea b6 3c 04 15 da bc f0 3f a1 bb 71 f7 ca 3c
       0.022328647 -0.02662135 -0.004920952 0.024776192
000220 1f d2 90 bc 5b 87 dc 3b 9b ab 02 bd 8b b5 8c 3d
       -0.017678319 0.006730003 -0.031901937 0.06870564
000230 4d d9 29 3d aa 98 6f bd 62 4c bb 3d ea c8 dd bc
       0.041467 -0.0584952 0.09145428 -0.027073342
000240 ca f2 4b bd b4 6e ab 3b 0c 6b d4 3c b8 bc 49 3d
       -0.04979209 0.0052317027 0.02592995 0.04925224
000250 4c 28 76 bd e0 2d 48 bd 7c a0 f0 bc be 77 91 3d
       -0.060097024 -0.048871875 -0.0293734 0.07102917
000260 05 e1 48 3d 04 8c 03 3d 78 06 45 bc 36 64 78 bd
       0.04904272 0.03211595 -0.012025468 -0.060642444
000270 a8 b7 22 3d 62 69 d8 bb 31 08 a0 bd 8a 12 c2 3d
       0.03972593 -0.0066043595 -0.078140624 0.09476192
000280 64 cc 66 3c f6 13 3e 3d b0 85 93 bc 87 04 53 bc
       0.014086816 0.046405755 -0.018008083 -0.012879497
000290 8a 6f 45 bd e3 51 a8 3c 91 a8 b5 bd 74 98 9c bd
       -0.048202075 0.02054686 -0.08870042 -0.076462656
0002a0 67 14 28 bd 7b 9b 90 bd 08 92 ac 3d fe c1 68 3d
       -0.041035082 -0.070609055 0.08426291 0.05682563
0002b0 20 74 8c 3c cd 91 fd 3c 08 64 8e bc f2 1a 2b 3d
       0.017145216 0.030953312 -0.017381683 0.041773744
0002c0 0a 2d a8 3d 25 00 9e 3c fc 89 83 3c b5 d7 d6 bc
       0.082117155 0.019287178 0.016057007 -0.026225904
0002d0 99 dd e8 ba ff 89 80 3d ec 00 a2 3d 94 7f e6 bc
       -0.0017766237 0.06276321 0.07910332 -0.028137006
0002e0 f4 e5 5d bd 7e 6d b2 3d 40 ed 9c 3d 9b 2f 67 bd
       -0.05417438 0.0871229 0.07662439 -0.056441884
0002f0 77 37 53 bb 08 44 91 3d 33 2c 87 bd 67 99 a8 3d
       -0.0032229105 0.07093054 -0.06600227 0.08232384
000300 a0 0c 11 bd 7c 7a d1 3d 9f dd e9 3c fc b6 34 3d
       -0.03541243 0.1022844 0.02854806 0.04411982
000310 8b e8 d3 3d 22 44 09 bd 2b 28 a8 3d d8 49 69 3c
       0.103470884 -0.033512242 0.082107864 0.014238797
000320 44 f8 26 bd c6 3e 31 3d f1 7c 51 3c a6 a0 ac 3d
       -0.04076411 0.043272756 0.012786136 0.08429079
000330 04 d7 21 bd b9 c8 5b bd 59 8f 1e bc 38 73 91 3c
       -0.039511696 -0.05365822 -0.009677731 0.017755136
000340 ac dd 98 3d 13 cf 6b 3d d0 73 df bb 5c 60 8a bd
       0.074641556 0.05757053 -0.006819226 -0.0675666
000350 92 1c 99 bd 21 6f af bc 34 4b a6 3d ff 63 b2 3d
       -0.074761525 -0.021415295 0.081198126 0.08710479
000360 65 e7 be 3d 69 7f 02 bc b5 b7 91 bd 86 32 ab bd
       0.09321479 -0.007964947 -0.071151175 -0.08359246
000370 ac d1 a5 bd 5b da b9 3d e3 44 ca 3d b1 bb 62 3d
       -0.08096632 0.09074851 0.0987642 0.055354778
000380 54 7d bc bc 46 a6 33 3d fe 86 4b 3d 58 33 0b bd
       -0.02300898 0.043859743 0.049689285 -0.033984512
000390 cf 8a eb 3c af a0 bf 3c a5 85 92 bd 80 1b 60 3d
       0.028752713 0.02339205 -0.07154397 0.054713726
0003a0 b2 bb 1d 3d 66 98 a7 bb eb b7 db 39 30 31 21 3d
       0.03850908 -0.005114603 0.00041907965 0.03935355
0003b0 4e dc 9a 3d b0 db 54 3d 3f 45 b7 3c b0 ad 52 3d
       0.07561551 0.051967323 0.022371886 0.051435173
0003c0 ae 09 66 bd b9 20 33 3d d3 7d 58 3d 67 78 85 bd
       -0.056161575 0.04373238 0.05285437 -0.065171055
0003d0 78 dc b9 bb 2e 8a e2 bc e0 bd 82 3c 54 7d 5b 3d
       -0.005672034 -0.02765378 0.01595968 0.05358632
0003e0 4c df 1c bd 47 e4 fa bc ba 51 46 bd b1 82 5c bd
       -0.03829889 -0.03062643 -0.048417784 -0.053835575
0003f0 59 56 b7 3d a9 2a 6e 3d 02 b7 4b 3c c8 73 54 bc
       0.089520164 0.058146153 0.012433769 -0.0129670575
