app/src/main/assets/converted_model.tflite (tflite, 537852 bytes, 11 tensors)

sequential/dense_1/BiasAdd/ReadVariableOp f4 [32]
000000 3e e2 f3 3c 56 fa 16 bc f4 aa 1d 3d 56 a6 3d 3d
       0.029770967 -0.009214958 0.03849311 0.04630121
000010 3c 11 be bc 25 5d 00 3d ac b2 df bc 28 f4 0f bb
       -0.023201577 0.03133883 -0.027306877 -0.0021965597
000020 42 5f 18 bd 86 41 34 39 a9 3e 98 3c a8 08 cd 3c
       -0.03720022 0.00017190547 0.018584566 0.025028542
000030 00 20 27 bd 50 92 0c bd a9 10 d8 3c d3 f1 97 bc
       -0.040802002 -0.034319222 0.026375132 -0.018547928
000040 77 d4 e2 bc 55 64 cf bc 3b 93 a4 3c 0b c3 71 bc
       -0.027689202 -0.025316397 0.020089736 -0.0147559745
000050 31 6f 19 bc 98 22 db bc 05 c4 c7 bc 2d 7b 23 bd
       -0.009364889 -0.026749894 -0.024385462 -0.03991239
000060 86 e6 22 bc 41 21 2e 3c d3 5b b4 bc 79 fc f4 3c
       -0.009942656 0.010628046 -0.022016441 0.029905545
000070 6f bd 05 3d a9 8d af 3c ec a6 06 bd 99 9b aa bc
       0.03265136 0.021429854 -0.032874033 -0.020826148

sequential/dense_2/BiasAdd/ReadVariableOp f4 [32]
000000 7d 3e 19 3d 66 0a 09 bd ad 6a 8c bb d6 1d 23 3d
       0.03741311 -0.033457182 -0.0042851777 0.039823376
000010 96 de da bc aa ee ab bc 00 00 00 00 91 50 bc bc
       -0.026717465 -0.020987827 0.0 -0.022987636
000020 06 79 40 bd ba 24 44 3d 07 e4 08 bd 00 00 00 00
       -0.046990417 0.047886588 -0.03342059 0.0
000030 47 5c 04 3d e4 79 47 bc 5e 10 0c 3d 2a fa e2 bc
       0.032314565 -0.012175057 0.034195296 -0.027707178
000040 53 92 16 bd df 77 5c 3c b0 cc f3 bc 0c 7e 67 3d
       -0.03676064 0.013456314 -0.029760689 0.056516692
000050 b7 41 e8 bc af 0c 33 3d 00 00 00 00 82 77 98 bc
       -0.028351648 0.043713268 0.0 -0.018611673
000060 32 fb 15 bd 39 0d 94 bc 13 c4 10 ba 95 5c 16 bd
       -0.03661651 -0.018072711 -0.00055223814 -0.036709387
000070 e1 68 c8 3c 6d a0 1c bd 0f e1 37 3d 37 97 cb bb
       0.024464073 -0.03823893 0.044892367 -0.0062130946

sequential/dense_3/BiasAdd/ReadVariableOp f4 [3]
000000 5f 2a 9b 3c 7e c4 11 bd 66 78 25 3d
       0.018941103 -0.03558778 0.040398024

sequential/dense/BiasAdd/ReadVariableOp f4 [32]
000000 79 ee a7 bc e3 54 47 3c 2e a3 38 3c ad 95 61 bc
       -0.020499455 0.012166235 0.011269374 -0.013768596
000010 71 19 ab bc 6e c0 cf 3c 99 9c 06 3d 66 69 01 3c
       -0.020886155 0.025360312 0.032864187 0.007898664
000020 7e b2 94 bc 8c 38 2f bc 5d f8 80 3c de 7a 8f bc
       -0.018151518 -0.010694634 0.015743429 -0.017514642
000030 eb bc 05 bc f0 ba cc 3c 6c a5 18 3d 78 84 de bb
       -0.008162717 0.024991482 0.037267134 -0.006790694
000040 66 69 07 bc ba 39 d6 bc 33 87 b9 bb e4 44 8f bc
       -0.008264875 -0.026150573 -0.005661869 -0.017488904
000050 4a ec c7 3c 5f d8 aa 3c 5a 9b eb bc 49 24 8a 3b
       0.024404664 0.020855127 -0.0287606 0.0042157513
000060 b5 68 d9 bc b3 5a ec bc 42 ad 56 3c 7b 93 b4 3c
       -0.026539186 -0.028851843 0.013102831 0.02204298
000070 e9 9d 8a bc c0 6b 00 3d fc bb e4 bc b9 da 66 bc
       -0.016921 0.03135276 -0.02792167 -0.0140902335

sequential/dense/MatMul f4 [32, 64]
000000 a8 0b f4 3c f9 d6 fa bc 03 7d 1d bd 06 86 ea 3d
       0.029790714 -0.030620085 -0.0384493 0.11451344
000010 42 8e c9 3c bf b6 46 3d a9 4f 34 be 20 23 db 3d
       0.024603967 0.048514124 -0.17608513 0.10700059
000020 1c 4a 12 be c4 f6 5a be 9a 65 0e 3e 2f 12 58 3e
       -0.14286083 -0.21383196 0.13905945 0.21100686
000030 e0 14 30 be cd 18 70 3e f4 fa 5f 3e 1b 10 b5 bd
       -0.17195463 0.23446961 0.21873075 -0.088409625
000040 db 41 37 3d 72 c6 35 be 48 da cb 3d 4a 9d f1 3d
       0.04474054 -0.17751482 0.09953743 0.11797579
000050 94 76 c3 bd b3 2b 0d 3e d6 3f 49 be 7b cf dc 3d
       -0.09544101 0.13786201 -0.19653258 0.10781761
000060 78 58 ee 3d 29 50 26 3e de 70 15 be b5 b3 17 3e
       0.11637968 0.16241516 -0.14593837 0.14814647
000070 7e 39 1c be 81 81 e5 3d 4c 2f 01 be 94 40 06 3e
       -0.15256307 0.112063415 -0.12615699 0.13110572
000080 cf 0f a5 bd 29 7b 52 3e 76 db ee 3d a7 a3 9b 3d
       -0.08059656 0.20554794 0.116629526 0.075995736
000090 eb 1e 8f bd 17 03 58 3e 61 9c 1f 3e 3a c2 75 bc
       -0.06988319 0.21094929 0.15586998 -0.0149999205
0000a0 25 62 ab bd f9 62 c1 3b 91 a6 59 be 7c d8 c8 3d
       -0.08368329 0.005901691 -0.21254946 0.09806916
0000b0 ba 84 28 be 08 8f 21 be 40 f9 96 bd f1 ba ac 3d
       -0.16456881 -0.15777218 -0.073717594 0.08434094
0000c0 38 4f 00 3e 6f 63 5e 3e 67 50 68 3e da 0b 64 be
       0.1253022 0.21717618 0.22686921 -0.22270146
0000d0 77 26 27 be ff 86 2f be 2a 05 b8 bd a1 a1 07 3e
       -0.16323267 -0.1714134 -0.0898536 0.1324525
0000e0 31 e1 4d be f3 a9 1f 3c 0c c8 23 3e 53 69 3a be
       -0.20105435 0.009745109 0.1599428 -0.1820424
0000f0 45 65 4c be b1 03 62 3e 03 5b 2d 3e a4 e6 a5 3d
       -0.19960506 0.2207172 0.1692925 0.08100632
000100 b1 f1 c2 bd 22 ad 65 3e 20 57 57 3d c4 89 4c be
       -0.09518755 0.22429326 0.052573323 -0.19974428
000110 47 eb 3e 3d 6c c4 d0 3d db 59 3c be d8 35 48 3e
       0.046611097 0.101937145 -0.18393652 0.1955179
000120 87 fe cd 3d 93 fc 63 3c c9 27 2a 3e 48 c9 8e bd
       0.10058313 0.013915199 0.1661674 -0.06971985
000130 98 7c 46 3e de ab c3 bc 50 76 8e bc 2b 25 de 3d
       0.19383466 -0.023885664 -0.0173904 0.10846933
000140 bd c0 a2 3d 9b 06 a2 bd 4d 4a 5a be 31 37 1b bc
       0.07946918 -0.07911416 -0.21317406 -0.009473608
000150 66 9d da bd 5c 2d 95 3c 21 fc 6d be 0b f5 28 3e
       -0.106745526 0.018210106 -0.23240711 0.16499726
000160 5d ad 3f 3e 5f 94 02 3d 20 0d 11 3e df 34 76 bc
       0.18718477 0.03187978 0.14165163 -0.015027254
000170 0f 97 0b bd 26 40 87 bd d7 71 2d be 88 d3 a1 3d
       -0.034079608 -0.06604032 -0.16937958 0.079016745
000180 58 ab 19 bd 13 5f ab bd fa c1 1a 3e 1d b6 68 3e
       -0.03751692 -0.08367743 0.15113059 0.2272572
000190 27 69 21 be e9 4a 0c be 77 06 45 be 19 7f 2d 3e
       -0.15762769 -0.13700451 -0.19240747 0.16943015
0001a0 e4 94 61 be 1a 91 32 3d 07 6f 81 3e f8 09 63 3d
       -0.22029454 0.04359541 0.2528002 0.05542943
0001b0 85 a5 05 be c5 2e 60 be cf 47 19 3e c8 ae 2e be
       -0.13051422 -0.21892841 0.14968799 -0.17058861
0001c0 e3 f8 d8 3c ad 80 7e 3e f7 f7 ec 3d 85 b6 00 3e
       0.026485866 0.24853773 0.11570733 0.12569626
0001d0 d2 3f c3 3d af 3c 5f 3d f5 3f 4c bd 9e 2e 0e be
       0.09533657 0.05450123 -0.04986568 -0.1388497
0001e0 15 89 5d be b7 51 6e bd 78 5c 4a 3e bf 4d 0f 3e
       -0.21634324 -0.058183398 0.19761837 0.13994502
0001f0 f6 89 4c 3e d9 f6 e5 3d a3 43 44 3e 14 de cd bd
       0.19974503 0.11228723 0.19166426 -0.10052124
000200 fa 1d 7d be f1 db 0f be a5 2a 15 be 74 54 fa 3d
       -0.24718466 -0.14048745 -0.14567049 0.122231394
000210 a1 a1 92 3d 81 72 5e 3d e0 2b cd 3d 34 31 e4 3d
       0.071597345 0.05430842 0.10018134 0.11142197
000220 1e 06 0e be 94 07 f2 3d f6 0a 8e bd d4 b4 8c 3b
       -0.13869521 0.11817852 -0.069356844 0.0042940173
000230 a8 94 53 3e 99 7a 4b be a6 75 36 be 02 a2 21 3e
       0.20662177 -0.19870986 -0.17818317 0.15784457
000240 03 2d 0b be 4f c3 1f 3d 98 81 77 bd 61 f5 5e 3e
       -0.1359139 0.03900462 -0.060426325 0.21773292
000250 af 3f 21 bd a9 a0 08 3e 78 56 0d 3e 3a 71 5d be
       -0.039367374 0.13342537 0.13802516 -0.21625224
000260 9b 37 d8 3c 80 8c 00 3e 48 0a 96 bd 0a 18 27 bd
       0.026393702 0.12553596 -0.0732618 -0.04079441
000270 56 11 f0 bd 77 e2 dd bd 59 13 07 be c3 ce ad 3d
       -0.117220566 -0.1083421 -0.13190974 0.08486702
000280 f2 02 3e 3e 8f 6a 48 be 03 15 66 be 9c 00 3e 3e
       0.18555811 -0.19571899 -0.22468953 0.1855492
000290 a4 81 b9 ba 37 66 e2 3d bd 8b 19 3d 91 42 3d be
       -0.0014153016 0.11054652 0.03748678 -0.18482424
0002a0 ff 27 b8 bd 9d 6e 3c be 1b b1 32 bd 94 99 f4 bd
       -0.08992004 -0.1840157 -0.043625932 -0.11943355
0002b0 fd d4 b9 bd a7 6d f3 3c 9d 75 50 3e 05 4b 72 be
       -0.090738274 0.029715372 0.20357366 -0.2366143
0002c0 ef 11 90 3d 65 2a 64 3e 73 3d ff bd e9 67 b2 3a
       0.070346706 0.22281797 -0.124628924 0.001361129
0002d0 3c d6 06 be f4 0c 76 3e c0 66 99 bd d5 80 ed 3d
       -0.13167661 0.24028379 -0.07490301 0.115968384
0002e0 8c 8c d7 bd d0 5b 71 be 6f 0e ec 3d aa a9 4f 3d
       -0.10524854 -0.2357018 0.115261905 0.050698914
0002f0 97 53 67 be cb 5d ef 3d b2 58 f7 3d b9 bd 61 3d
       -0.2259048 0.116878115 0.12077464 0.055112574
000300 e2 3b 47 3d d5 67 fa 3d 66 9a 34 be a7 92 90 bc
       0.048641093 0.12226836 -0.17637023 -0.017648054
000310 62 fc 2e 3e 1f aa 66 be e3 f5 32 bb 3f 3c 3a 3d
       0.17088464 -0.22525834 -0.0027307204 0.04546761
000320 f3 bf 1d 3d fd c6 46 be fb da 21 be ac 65 ad 3b
       0.038513135 -0.19411846 -0.1580619 0.0052916612
000330 5c ab 2b be f9 c6 91 bd 45 78 6b 3e bd 2b dd bc
       -0.16764587 -0.07118029 0.22995098 -0.026998395
000340 73 fa 1e 3e 4c 3d 20 be 78 cb a6 3d 90 c6 1a be
       0.15525226 -0.15648383 0.08144277 -0.15114808
000350 fa 7b 67 be fd 96 71 be 12 43 85 bd cc 82 20 be
       -0.22605887 -0.23592754 -0.06506933 -0.15674895
000360 b2 f2 46 3e 0f 75 5f 3e 23 53 3f 3e 75 23 dc bd
       0.19428518 0.21821998 0.18684058 -0.107489504
000370 26 aa 36 bc 95 e0 eb 3d ff a1 22 bd 00 59 d4 bd
       -0.011148965 0.11517445 -0.039705273 -0.10368538
000380 e2 69 3c 3e 7d fc 02 3d eb 15 7f be 61 85 84 bd
       0.18399766 0.031979073 -0.24910705 -0.064707525
000390 23 21 89 3c 16 99 20 be f2 9c 09 be 2e 94 6d 3d
       0.016739434 -0.15683398 -0.13438776 0.058002643
0003a0 b8 fc 78 be 65 df dc bd b6 49 30 be 0b 37 6c 3d
       -0.24315155 -0.107847966 -0.17215618 0.05766968
0003b0 81 4e 01 3d 1a 83 1f be ee 38 f5 bd 01 e2 6d be
       0.031569008 -0.15577355 -0.11973749 -0.23230745
0003c0 85 81 c8 3d e2 49 c9 bd 7c 5c 81 3e bd ab a1 3c
       0.09790329 -0.09828545 0.25265872 0.019735212
0003d0 51 40 02 bd e5 46 f8 3c 04 d8 1f 3d 06 bf 33 3e
       -0.03179962 0.030307243 0.039024368 0.17553338
0003e0 0e b0 bf 3d 8c 83 4d 3e ce 33 65 3e 14 d2 84 bc
       0.09359752 0.20069712 0.22383043 -0.016213454
0003f0 7c de 88 be eb 58 2d bd 9c 0c a9 bb c6 14 31 3e
       -0.26732242 -0.042321127 -0.005158974 0.1729308

sequential/dense_1/MatMul f4 [32, 32]
000000 af 94 b1 bd b7 9a 00 3e 64 8b a6 bc 1b 6a b0 bb
       -0.08670937 0.12559019 -0.020330139 -0.0053837425
000010 08 13 8d 3e 6f cb 89 3e b9 53 3d 3d b3 dd 8a 3d
       0.27553582 0.2691302 0.046222422 0.06780567
000020 5e 0d bb 3d 13 76 17 3e f1 c8 5b be e2 a4 95 3d
       0.09133409 0.14791135 -0.21463372 0.073068395
000030 3c 14 5c 3d e9 72 44 bd 1b 4e 4d be 86 c9 7e be
       0.053730235 -0.04796115 -0.20049326 -0.24881563
000040 98 9b fa 3d 23 c1 18 3e 62 77 0b be 7c ac 54 be
       0.122367084 0.14917426 -0.1361976 -0.20768923
000050 36 4e ce bd ef ac 82 be bb 4a d4 3d 30 ac 54 3e
       -0.10073511 -0.25522563 0.10365816 0.2076881
000060 2e 7f 37 3c 0f d4 ff bd 49 e5 03 bd 2a 79 03 be
       0.011199756 -0.12491619 -0.032201085 -0.12839189
000070 b9 c3 71 be 4d c0 0f 3c a8 52 0d be b0 e1 88 be
       -0.23609819 0.008773875 -0.13801062 -0.26734686
000080 d7 97 45 3e 57 47 28 be 4a b9 87 bd 23 50 15 3e
       0.19296204 -0.16433464 -0.06627138 0.14581351
000090 3d f5 22 3e 80 01 06 3e eb a7 2d bd 78 21 6a be
       0.15913863 0.1308651 -0.042396467 -0.2286433
0000a0 8a 9d 12 3e 34 04 8e bc d1 a0 40 3e 43 bb 95 3c
       0.14317909 -0.017335989 0.18811347 0.01827777
0000b0 31 39 0b be 6f c5 ea bc 40 fb 06 bd 71 fe c3 bd
       -0.13596036 -0.028658597 -0.032954454 -0.09570015
0000c0 1e 01 29 3e 80 43 95 be da d0 2d be f9 9e f5 bd
       0.16504332 -0.2915306 -0.16974202 -0.11993212
0000d0 c7 7a c0 3c 40 52 60 bd 1d 84 2b 3d 6a bd 44 be
       0.023496045 -0.05476594 0.04187404 -0.1921288
0000e0 10 3e 12 3d c7 7c 83 be 2e 11 1f 3e 4b 85 96 3e
       0.03570372 -0.25681135 0.15533897 0.2939857
0000f0 7b a1 80 bd e3 16 63 3e b0 a7 8f be 6a f7 4f be
       -0.062808 0.221767 -0.28057623 -0.20309225
000100 1a bf 4b 3e 1e f1 48 3e 4f 53 46 3e 81 59 30 be
       0.19897118 0.19623229 0.19367717 -0.17221643
000110 c5 b4 8d 3e ca 1a 34 be 97 f9 b2 3d e2 13 8b 3e
       0.2767698 -0.17588344 0.08739012 0.27163607
000120 33 f5 fb 3d 6c af 83 3e 25 a5 64 3e 5c 23 3c bd
       0.123026274 0.25719774 0.22328623 -0.04593216
000130 ae 24 06 bd b4 8d 14 bd 77 3d 05 be c8 0e a1 3e
       -0.032749824 -0.03626795 -0.13011728 0.3145659
000140 a6 14 44 3d e8 90 52 bd 20 08 49 be fd ee 45 3d
       0.047871254 -0.051407725 -0.19632006 0.04832362
000150 e9 ea b7 3d ed 92 88 3e 05 e9 2d bd c1 ea 0c 3e
       0.089803524 0.26674595 -0.042458553 0.13761427
000160 95 61 53 be 88 97 4f be 2d 2e 1a 3d d6 4c 68 be
       -0.20642693 -0.20272648 0.037641693 -0.2268556
000170 be 03 b5 3c 1f e7 07 3e 87 37 86 3d f2 77 9e 3e
       0.022096511 0.1327176 0.0655356 0.30950886
000180 a4 97 0d be d3 d4 9d 3d 3b 7e 91 be 4f 7b 87 3d
       -0.13827378 0.077066086 -0.2841662 0.06615316
000190 b6 3e a8 3d 8b ad 9f bd fa bc 74 3e 34 50 62 3e
       0.08215086 -0.077967726 0.23900214 0.22100908
0001a0 4c 1b 0b 3e e4 67 05 be b1 53 97 3d 3d d7 2f bd
       0.13584632 -0.13027912 0.0738901 -0.042929877
0001b0 02 45 05 3d c3 74 2e be 91 43 52 3e 0a b5 1c 3e
       0.032536514 -0.17036729 0.20533587 0.15303436
0001c0 79 eb 8e 3e 8e d4 ea bd da 04 66 3e c2 95 9b be
       0.27914026 -0.11466323 0.22462788 -0.30387694
0001d0 a2 9a b6 bd 87 f8 84 3e ef 80 f4 3b 02 92 01 be
       -0.089162126 0.2597086 0.007461659 -0.12653354
0001e0 8b a3 0c be 42 12 63 be 52 5b d1 3d 3e ee 41 3e
       -0.13734262 -0.22174934 0.10222496 0.18938538
0001f0 71 6e 89 3d 7f 77 25 bd 7c 30 be bd 10 eb 94 3e
       0.06710518 -0.040397163 -0.092865914 0.29085588
000200 a4 1c 95 be 23 21 1a bc 86 87 a2 bd 59 1f 42 3e
       -0.29123414 -0.0094073145 -0.07936005 0.1895727
000210 0c aa 45 bd ad f9 46 3c fb 69 88 3e f7 11 5d 3d
       -0.048257872 0.012144488 0.26643357 0.05397221
000220 d2 84 b8 bc 5d a2 93 be 79 9a 08 3c 43 b4 60 3e
       -0.022524271 -0.2883481 0.00833761 0.21943764
000230 f8 5d 20 be 8a 5d 8a be 72 b9 12 3e d4 f9 32 be
       -0.15660846 -0.2702449 0.14328554 -0.17478114
000240 f6 86 cc bd 23 ce 74 be 49 7d 0f be 73 f6 34 be
       -0.09986679 -0.2390676 -0.14012636 -0.17672138
000250 d9 09 b5 3e 98 18 2f be 9b 46 32 bd 0d 07 59 3e
       0.35359076 -0.17099226 -0.043524366 0.21194096
000260 52 51 6a be f6 2a a6 bd e9 a2 64 3d 1d 7c 80 3e
       -0.22882584 -0.08113663 0.055819426 0.2509469
000270 2e cb 03 bd e1 37 07 3d 87 51 37 bd 47 22 08 3e
       -0.03217619 0.033012275 -0.044755485 0.13294326
000280 b4 8f 7c 3e 15 7a 84 3e 59 1a 6a bd 1a 07 57 3e
       0.24664193 0.2587439 -0.057154033 0.20998803
000290 8a 81 8a bd 94 9b c9 bd 61 9d 83 3e df 24 85 bc
       -0.06762989 -0.09844127 0.25706008 -0.016252933
0002a0 19 92 c6 3c f0 7d bf 3c d1 ed 79 3e 86 39 5e be
       0.024239587 0.023375481 0.24407126 -0.21701631
0002b0 97 6b 56 bd 5d 21 9a bd e1 04 aa 3d 0b 3a 80 3e
       -0.0523487 -0.07525895 0.08301712 0.25044283
0002c0 9b 03 9d bc 62 c8 70 be 63 35 03 3d ae 94 95 be
       -0.019166758 -0.2351394 0.032033335 -0.29214996
0002d0 29 22 86 be e4 ef b8 3d 4a c7 9e be e2 57 d5 bd
       -0.26197937 0.090301305 -0.3101142 -0.10417153
0002e0 c7 60 36 be d9 7f 08 be 44 ac e4 3d 1a dd 75 3e
       -0.17810355 -0.1333002 0.111656696 0.24010125
0002f0 33 2e de bd ea 3a 09 be 9f 3a c4 3d 93 fc 4d be
       -0.108486556 -0.1340138 0.095814936 -0.2011588
000300 4e fa ff bd 10 cb 10 3e 02 34 95 be 36 5b e6 3d
       -0.12498914 0.14139962 -0.2914124 0.11247866
000310 44 11 1e 3e 5b 23 e3 bd a4 4d 7b be 20 30 18 bd
       0.15436274 -0.11090728 -0.24541336 -0.03715527
000320 28 de 8e be e1 9d 18 3e b1 30 72 be ac 21 8e 3e
       -0.27903867 0.14903976 -0.23651387 0.27760065
000330 ad aa cd 3d 01 70 35 be 00 d4 09 be e5 97 fd bd
       0.100423194 -0.17718507 -0.13459778 -0.12382487
000340 4f 54 8b 3e 75 57 54 bd 84 7d 46 be 4c f5 11 3e
       0.2721276 -0.051841218 -0.19383818 0.1425373
000350 0f 7d 91 be 66 31 e9 3c ef 36 f3 3d 54 dd 3b 3e
       -0.28415725 0.028465938 0.11875712 0.18346149
000360 06 46 78 3e 3e fc 15 3e 77 35 33 3e 9c c5 96 be
       0.24245462 0.14647004 0.17500864 -0.2944764
000370 7a 81 8a 3e 47 70 66 be 64 d1 1e 3e 35 d7 57 3e
       0.27051908 -0.22503768 0.15509564 0.21078189
000380 74 61 31 3e 77 ff 3e bc bf 1e 62 3d 88 da 4d 3e
       0.17322332 -0.011657587 0.055205103 0.20102894
000390 65 8e 66 bd 2a f6 85 be f3 64 b5 bd 21 17 ac bd
       -0.05628814 -0.2616437 -0.08857145 -0.08402849
0003a0 be 65 58 3e 5f 5b fc 3c dc bb 3d be 0e 27 09 3e
       0.21132562 0.030805288 -0.18528694 0.13393804
0003b0 21 15 6c 3e b1 8a 8d 3e ff f4 34 3e 20 d9 fc 3d
       0.23054935 0.27644876 0.17671584 0.12346101
0003c0 0e 22 64 3e c8 8c 08 be 29 79 92 be 11 0c 13 be
       0.22278616 -0.13334954 -0.28608063 -0.14360072
0003d0 38 af 66 be af 68 0a be 8f 07 16 3e b6 7f 6a be
       -0.22527778 -0.13516496 0.14651321 -0.2290028
0003e0 82 6f 87 3e 45 be 4f be a7 bd 70 be ff 57 4f 3e
       0.2645226 -0.20287426 -0.23509847 0.20248412
0003f0 51 6a 4e be 21 c0 6a bb 98 8b b8 bd eb 1d 66 3e
       -0.20157744 -0.0035820084 -0.090110004 0.2247235

sequential/dense_2/MatMul f4 [32, 32]
000000 f0 e8 1a 3d c9 89 b5 3d 4c 76 1e 3e e9 9c 04 3e
       0.037819803 0.08864171 0.15474814 0.12950481
000010 53 dc b7 3d 17 74 71 3e 5a 2a 88 be d9 20 27 3e
       0.089775704 0.23579441 -0.26594812 0.16321124
000020 85 b1 dc bd 4a ae cd 3d bb 44 53 bd 9c 39 95 3e
       -0.10776047 0.100430086 -0.05157922 0.29145515
000030 07 5e 82 be 2a f2 02 3e ed 0c 09 3e 1d 54 4a be
       -0.25462362 0.12787691 0.13383837 -0.19758649
000040 d4 3b 4d 3e 2b 51 27 be c1 db 89 3d 0c d8 12 bd
       0.20042354 -0.16339557 0.06731368 -0.03585057
000050 3f d2 1c be 21 27 8b be 70 ff 8c be af 2a c4 bb
       -0.15314578 -0.2717829 -0.27538633 -0.0059865336
000060 a1 e9 5d be 20 41 92 3e 01 62 f7 bd e7 09 65 3e
       -0.21671154 0.2856531 -0.1207924 0.22367059
000070 16 da 14 3d 21 9f 63 3e 74 3d 1f be 99 1a 8a be
       0.036340795 0.22228672 -0.15550786 -0.26973417
000080 54 13 0a 3e bc 6e 91 3e 79 7e 69 bc 03 1c 1d 3e
       0.13483936 0.28404796 -0.014251345 0.15342717
000090 f7 60 a1 3d 43 3a 25 be 5a 5b 18 3e 90 d6 02 bd
       0.07879823 -0.16135506 0.14878598 -0.031942904
0000a0 69 69 0f be bb 97 29 3e b1 b9 51 be 7d 5b 83 3e
       -0.14005055 0.16561787 -0.20480992 0.25655738
0000b0 77 5a c5 bd 91 e4 47 3e d8 6f ef 3d 28 9c 17 bd
       -0.096363954 0.19520785 0.116912544 -0.037014157
0000c0 68 32 6b 3e ea 9b 60 bd b9 83 06 be f5 9f 92 3e
       0.22968447 -0.05483619 -0.13136186 0.28637663
0000d0 77 92 32 be 0c e8 62 be b2 01 7e be 91 9e 6c be
       -0.17438684 -0.22158831 -0.24805334 -0.23107363
0000e0 8a 1c 93 3e 4b 1f 51 be 3b 74 69 3e 27 30 01 be
       0.2873271 -0.20422094 0.22798245 -0.12616025
0000f0 06 b5 35 be ac ce c8 3d 6a e5 0d be 44 79 03 bd
       -0.17744836 0.098050445 -0.13857046 -0.03209807
000100 f2 72 fe bc 4c f1 28 3d b8 54 21 be 52 0e 7c be
       -0.03106067 0.041245744 -0.15754974 -0.24614838
000110 63 fa 81 3e 31 27 96 3c 43 23 8a be 4f 13 59 3e
       0.25386342 0.018329235 -0.26980028 0.21198772
000120 e6 bd df 3d dc d2 fc bd d5 ad f2 3d 25 4b 0b 3e
       0.10924892 -0.12344906 0.11849562 0.13602884
000130 df ee 13 be 63 b6 72 be 86 b8 f5 3d 5c 39 2c 3e
       -0.14446591 -0.23702388 0.11998086 0.16818756
000140 24 f5 94 3e 90 4b ba bd 65 08 0e be 8b 94 60 3e
       0.29093277 -0.09096444 -0.1387039 0.21931665
000150 61 77 31 3e 1e 13 86 3e 1e 2f 59 3e ca 79 af 3b
       0.17330696 0.2618646 0.2120938 0.0053550946
000160 54 7e 8f be e9 64 09 be 4c d8 db bc 36 63 53 3e
       -0.28026068 -0.134174 -0.026836537 0.20643315
000170 3a f6 1a 3d f3 10 93 3e bb 7b 41 be a4 0b 83 3e
       0.037832476 0.2872387 -0.18894856 0.2559482
000180 84 fa 53 3e 4d ee 97 bd a7 b8 74 bd 1f b5 92 3d
       0.20701033 -0.07418499 -0.05974641 0.07163452
000190 f2 c7 de 3d 3e bc 99 3e 43 d7 c4 bd b6 49 90 3e
       0.1087798 0.3002643 -0.096113704 0.28181237
0001a0 6c 54 93 3e 10 fd 9b bc 62 d2 f1 bd 1a 53 15 be
       0.28775346 -0.019041568 -0.118077055 -0.14582482
0001b0 d1 69 31 be e9 72 2d be 87 8e 7a 3e c3 fb a0 bb
       -0.17325522 -0.16938366 0.24468432 -0.004912825
0001c0 e1 f4 17 3d e6 d2 3b 3e 16 e2 72 3d 01 e8 8f 3e
       0.03709877 0.1834217 0.059297644 0.28106692
0001d0 df 8d 13 bd 1d d7 56 be 95 f2 ba bd c5 76 ca 3c
       -0.03602397 -0.20980497 -0.091283 0.024714837
0001e0 0f 46 0d 3e 78 e6 10 be ae 7f 6d bd 1d 07 16 3e
       0.13796256 -0.14150417 -0.057983093 0.14651151
0001f0 c5 c7 3b 3e 9e b9 00 3e 4c 6f 93 be 97 a9 91 be
       0.18337925 0.12570807 -0.2879585 -0.284497
000200 2e 12 6e be 25 54 9b be ab 04 67 3e ca 22 3a be
       -0.23249123 -0.30337635 0.22560374 -0.18177333
000210 66 06 b8 bc 37 42 2d 3e 6b 07 6f be 16 98 89 3e
       -0.022463989 0.1691979 -0.23342673 0.26873845
000220 07 42 99 be ce bf 83 3e 19 a0 82 3e d3 06 16 3e
       -0.29933187 0.25732273 0.2551277 0.1465104
000230 e5 84 11 3e 05 bf 18 3e c2 26 29 3d 08 0b 4e be
       0.14210851 0.14916618 0.041296728 -0.20121396
000240 49 f4 4e be 7c aa 93 be 89 8c 84 be 19 66 6a bd
       -0.20210375 -0.28841007 -0.2588847 -0.057226274
000250 d0 a1 71 3e 57 01 2f be ba dd 0d be 65 84 c2 bd
       0.23596883 -0.17090355 -0.13854113 -0.094979085
000260 2e a0 89 be dd 81 24 be cd 25 6f be 6d 08 29 be
       -0.2688002 -0.16065164 -0.23354264 -0.1650712
000270 ff 12 1f be a6 f7 59 3d a5 56 dd 3d 2f 19 af 3d
       -0.1553459 0.05321469 0.10807542 0.08549725
000280 52 99 e9 3d e8 03 8c 3d a3 93 1b 3e 59 c8 9a 3d
       0.11406197 0.068366826 0.15193038 0.075577445
000290 85 fa b5 3d f4 e0 1a be 37 e8 50 3e d8 95 f7 3b
       0.088856734 -0.15124875 0.20401083 0.0075557046
0002a0 ab f9 8d bd 19 01 95 3d fd 0c 7e be 9d a5 44 3e
       -0.06932386 0.072756 -0.24809642 0.19203801
0002b0 1d 8f 2f be cc 40 2c 3d 72 ed 3e 3e fb 7d 41 3e
       -0.17144437 0.042053983 0.18645266 0.18895714
0002c0 84 07 51 3e ec 0b 3d 3e ce 58 9c 3e f4 96 7f be
       0.20413023 0.18461579 0.30536503 -0.24959928
0002d0 48 48 80 bd 8d 6b 14 3e 0b 5a ab 3c 01 fc 42 3d
       -0.062637866 0.14494152 0.02091696 0.04760361
0002e0 18 23 83 be 56 2e 28 3d 54 d8 77 be fd 21 88 3d
       -0.25612712 0.041059814 -0.24203616 0.06647108
0002f0 51 5f 5f bd 0e 1e 8f 3d 73 3a 84 3e 97 ae 5c 3e
       -0.05453426 0.06988154 0.25825843 0.21550976
000300 fb fc 1d be 74 4d 95 bd 18 c7 43 bd 94 20 52 be
       -0.15428536 -0.07290164 -0.047797292 -0.2052024
000310 90 4e ed 3c 9c 25 58 be cc 87 18 be 48 6d 2a 3e
       0.028968126 -0.21108097 -0.14895552 0.1664325
000320 d8 fb 52 be 00 eb de bc 02 07 65 be 9c 04 4f be
       -0.20603883 -0.027211666 -0.22365955 -0.20216602
000330 8a 43 8d bd 58 15 73 be 41 71 9a be a3 40 90 3e
       -0.06897648 -0.2373861 -0.3016453 0.28174314
000340 fa df 10 3e 08 21 96 be 7f e1 26 be 60 1a 8f bd
       0.1414794 -0.29322076 -0.16296957 -0.069874525
000350 ad ae 25 be b2 31 3a be 7f 23 91 3e 50 da f3 bc
       -0.16179915 -0.1818302 0.28347394 -0.029767185
000360 36 fa 18 3e b6 a2 fb bd d2 72 0e 3e 3e 32 c7 bd
       0.14939198 -0.12286894 0.13910988 -0.0972638
000370 16 d1 6c 3e cc 76 88 be b1 3b 1c be 0b d0 0b be
       0.23126635 -0.26653135 -0.15257145 -0.13653581
000380 c2 71 11 be 28 1a 2c be cf 60 46 be 36 09 62 3c
       -0.14203551 -0.16806853 -0.19372867 0.013796141
000390 db 37 5d be c1 92 12 3e 2b b7 3b 3e 1f 7b 48 bd
       -0.21603338 0.14313795 0.18331592 -0.048945542
0003a0 24 6d 85 3e 93 b6 09 3e ab 5b d4 bd 8e e4 68 be
       0.2605983 0.13448553 -0.10369047 -0.22743437
0003b0 08 03 89 3e a8 9f 2a be 7a 9e 79 be 3a 34 3c be
       0.26760125 -0.16662467 -0.2437686 -0.18379298
0003c0 36 5a 63 3e 04 b3 7f 3d 80 b9 c0 3d 3f 6c 0b 3e
       0.22202381 0.062426582 0.09410381 0.13615511
0003d0 aa ef 50 3d 76 c7 bc 3c a5 f7 f3 bc 31 80 a9 be
       0.05100981 0.02304433 -0.029781172 -0.33105615
0003e0 4a 64 39 3e 67 d0 1d 3e 0b 80 44 3e d0 cc ee bd
       0.18104663 0.1541153 0.1918947 -0.11660159
0003f0 24 47 a0 be a1 66 c4 3d 4b c3 3f 3d c2 7c 94 be
       -0.31304276 0.095898874 0.046817105 -0.29001433

sequential/dense_3/MatMul f4 [3, 32]
000000 1e 79 e3 3d e7 bb 94 3d 02 c1 93 be 05 9b 30 3d
       0.11107086 0.07262402 -0.2885819 0.04311659
000010 66 57 4d 3d 3d e0 b5 be 48 11 fc bd 73 05 b2 3d
       0.050132178 -0.35522643 -0.12307984 0.086924456
000020 5b e1 52 3e 1f 49 50 3c 8c 72 72 be 07 8c ab 3e
       0.20593779 0.012712746 -0.23676509 0.3350527
000030 59 01 ef 3c 13 9c c1 be a3 a9 b7 3d 52 83 19 3e
       0.029175447 -0.37814388 0.089679025 0.14991501
000040 ec a4 19 3e b2 86 2e 3e 55 92 b2 be 3c b7 a7 3e
       0.15004319 0.1704357 -0.34877267 0.32756984
000050 05 18 be be 56 69 3c be 3c 5c 5b be 23 6c a5 3e
       -0.371277 -0.18399557 -0.21421903 0.32309064
000060 c0 33 1a be 6d 5b e0 3c 8d bc c6 3e 7c 91 c9 3e
       -0.15058804 0.027387345 0.38815728 0.39368808
000070 d6 0d 57 3e 1e f5 3f 3e d7 48 c7 3e 09 72 91 be
       0.21001372 0.18745849 0.3892276 -0.28407314
000080 c5 8b 8d be c2 51 85 3e b4 79 0d 3e d7 14 4c be
       -0.27645698 0.2603894 0.13815957 -0.19929825
000090 3c 61 45 3e d4 bb d7 bc 76 fe 58 3e 12 fd a5 3e
       0.19275373 -0.02633468 0.21190819 0.3241964
0000a0 54 a6 83 3e 10 31 93 be 37 0a 90 bd dd a9 b0 3e
       0.25712836 -0.2874837 -0.07033198 0.34504595
0000b0 2b 98 5c be e5 7a 61 3e a0 57 16 be 75 11 77 3e
       -0.21542422 0.22019537 -0.14681864 0.24127753
0000c0 c8 43 8e 3e 49 9b f4 bd ac a8 ba 3e b9 9a 00 bd
       0.27786088 -0.11943681 0.3645681 -0.031397555
0000d0 a9 ec 52 be 33 15 52 be de 89 14 be 12 14 eb bd
       -0.20598091 -0.205159 -0.14505717 -0.114784375
0000e0 ea fa 4f 3e 57 d7 a6 3e f1 bf c0 3e f7 df 38 3e
       0.2031056 0.32586166 0.3764644 0.18054186
0000f0 8e 9f a2 be 7e 76 bb 3e 3b 64 09 bd cf 90 8f 3e
       -0.31762356 0.3661384 -0.033542853 0.28040168
000100 aa 95 b6 3e c0 a4 23 be 56 93 c1 3e ec ee c4 3d
       0.3566106 -0.15980816 0.3780772 0.09615883
000110 1a 68 8f 3c 2b c6 90 bd d8 d7 db bd 9e a3 48 be
       0.017505694 -0.070690475 -0.10734528 -0.19593665
000120 6f c2 f7 3d 0e cc b3 3e 9c 83 69 be 60 aa 8b 3d
       0.12097632 0.3511662 -0.22804111 0.06819606
000130 41 2a 56 bd 00 86 84 3e b1 53 76 be bc 0e 19 be
       -0.05228639 0.25883484 -0.24055363 -0.14947027
000140 90 c7 04 be 0a 86 0b bd bc 01 b9 be d0 a2 bd 3e
       -0.12966752 -0.034063376 -0.36134136 0.3703828
000150 81 79 a2 be 52 a1 f5 bd 6a 0a 0a be 26 c1 b6 bd
       -0.31733325 -0.1199366 -0.13480535 -0.08923559
000160 30 0f 4d 3d fe 5a 19 3d 46 fa 93 be 65 2e 19 be
       0.050063312 0.037440293 -0.2890188 -0.14959104
000170 2c fb 88 3d 1f e5 7d be 1b b7 dd 3e ff c6 c3 be
       0.06688532 -0.24794434 0.4330376 -0.3823776

sequential/lstm/while/lstm_cell/BiasAdd/ReadVariableOp f4 [256]
000000 f8 54 6c 3c 12 a9 07 3c a5 a1 12 bc 1b bb b9 bb
       0.014424555 0.008280056 -0.008949672 -0.0056680567
000010 c1 09 cd bb 29 9b 62 bc 9d 65 cb bb 55 bd 78 bb
       -0.0062572663 -0.013830938 -0.0062071816 -0.0037954648
000020 63 e1 10 3c da 2b 9a 3b db 2f be 3a cb fa 34 ba
       0.008842799 0.0047049345 0.0014510112 -0.0006903826
000030 94 3e 26 bc a6 ee 22 3c dd 6d a6 3b 78 2b 0c bc
       -0.010146756 0.0099445935 0.0050790147 -0.008555286
000040 88 7c 0f 3c c4 1d 5f 3c 9e ab 29 3b a7 f8 24 bc
       0.008757718 0.0136179365 0.0025889645 -0.010069049
000050 02 b3 9b bc 95 a9 1e 3a 1f 18 9a 3b 33 56 35 3a
       -0.019006256 0.00060524914 0.0047025825 0.0006917447
000060 ec 3e 17 bc 9b 53 d0 3a 9b 24 eb bb 64 03 02 3c
       -0.00923131 0.0015894057 -0.0071759946 0.007935379
000070 20 58 84 b9 f1 3b d9 bb aa 4e 77 bb f0 f7 6d bc
       -0.0002524266 -0.00662946 -0.0037736096 -0.014524445
000080 47 9c 22 bc dc ab 8a bc af 86 25 bc e1 62 9e bb
       -0.009924955 -0.016927652 -0.010102912 -0.0048335646
000090 09 fc fe bb 31 32 e9 3b 2a 21 23 3c dc 3b 28 bc
       -0.00778151 0.007116579 0.009956637 -0.010268178
0000a0 80 62 62 3b 68 94 c7 bb c4 bc 22 3b 70 59 3a 3a
       0.0034543574 -0.0060906895 0.0024831751 0.0007108664
0000b0 22 2e 47 bc b4 62 9d bb 50 16 14 3c f6 2d 76 3c
       -0.012156995 -0.004803026 0.009038523 0.015025606
0000c0 b4 99 cb 3a 9f f2 34 bc a8 22 cb bb 39 48 07 3c
       0.0015533478 -0.0110441735 -0.0061991997 0.008256965
0000d0 9b de d8 bb 06 af 0e b9 66 69 36 bb c1 4d a0 3c
       -0.0066183335 -0.00013607377 -0.0027833818 0.019568326
0000e0 8d 3e 42 bc ff 77 87 3b 44 15 cd bb 2b c0 c2 3b
       -0.011855734 0.0041341777 -0.0062586386 0.0059433184
0000f0 1f 1c b8 bb 07 f9 0e 3b ca 22 b3 ba e6 d2 03 3c
       -0.0056185867 0.0021815912 -0.0013666984 0.008045888
000100 d0 8e 80 3f a1 00 80 3f dd 29 7d 3f 17 d3 80 3f
       1.0043583 1.0000192 0.98892003 1.006442
000110 64 64 7e 3f 46 c0 7d 3f 09 f1 80 3f de 42 81 3f
       0.99371934 0.9912151 1.0073558 1.0098531
000120 c9 c6 80 3f 9f 41 7e 3f bd f8 7f 3f 7e e2 7f 3f
       1.0060664 0.9931888 0.9998892 0.99954975
000130 23 01 80 3f c7 0b 7f 3f 55 7f 7f 3f 46 c1 7e 3f
       1.0000347 0.99627346 0.9980367 0.9951366
000140 ba 08 80 3f 00 47 7e 3f 93 59 7f 3f 36 ce 7b 3f
       1.0002663 0.9932709 0.99746054 0.9836153
000150 bc fb 7d 3f b3 ac 7c 3f 84 d3 80 3f b4 f8 80 3f
       0.9921224 0.9870102 1.006455 1.0075898
000160 00 ca 80 3f 4a ff 7d 3f 51 fc 83 3f 31 0a 81 3f
       1.0061646 0.99217665 1.0311376 1.0081235
000170 28 6c 80 3f c8 bf 80 3f 56 b4 7d 3f ae 62 7e 3f
       1.0033007 1.0058527 0.99103296 0.99369323
000180 31 46 80 3f 0a 09 80 3f bd 59 7e 3f 77 01 7e 3f
       1.0021421 1.0002759 0.9935568 0.99220985
000190 81 33 80 3f 0e 7c 7d 3f a0 ae 80 3f 5d fb 7d 3f
       1.0015718 0.9901742 1.0053291 0.99211675
0001a0 c0 83 81 3f 6a c4 7e 3f 27 08 83 3f b9 95 80 3f
       1.0118332 0.99518454 1.0236863 1.0045692
0001b0 fc ae 7d 3f 88 9c 7e 3f 78 13 80 3f 19 a1 7c 3f
       0.9909513 0.994576 1.0005941 0.98683316
0001c0 b7 c0 80 3f 9f 9c 80 3f c9 4d 80 3f 47 a0 80 3f
       1.0058812 1.0047797 1.0023738 1.0048913
0001d0 00 ea 7c 3f 16 58 80 3f d5 b9 7a 3f d5 5c 7c 3f
       0.98794556 1.0026882 0.9793981 0.9857915
0001e0 2e 36 7e 3f 06 7a 7f 3f ec 68 7e 3f 0c 08 80 3f
       0.9930142 0.9979557 0.9937885 1.0002456
0001f0 c6 3f 7e 3f 10 7a 7e 3f 21 b5 7d 3f 24 1f 7f 3f
       0.9931606 0.99405 0.99104506 0.9965689
000200 3a 18 a5 3c 89 4d 5f 3b dc 6d 03 bc c7 af 91 3b
       0.020153154 0.0034073314 -0.008021798 0.004446003
000210 c8 03 d5 bb 49 48 22 bc be 31 ad bb 01 d3 64 3a
       -0.006500695 -0.009904929 -0.0052854707 0.0008728952
000220 5f 68 43 3b f9 2c 72 bb 18 33 fd 39 9f 0b 1d 3c
       0.0029816849 -0.0036953075 0.00048293988 0.00958529
000230 f0 d6 2a bc b2 85 c3 bb 5b 1b e4 ba be e3 01 bc
       -0.010427222 -0.0059668655 -0.0017403172 -0.007927833
000240 1f 7e 1a 39 b9 36 75 ba b8 5c c8 3a 46 c3 36 bc
       0.00014733568 -0.00093541626 0.0015286421 -0.011154955
000250 85 73 b5 38 be d4 33 bc 56 76 1e 3b 42 1b 16 3c
       8.65227e-05 -0.010976015 0.002417942 0.009161772
000260 53 38 ba bb 38 ad 1a b9 85 af 80 bb 1e fd 8e 3a
       -0.005682984 -0.00014751113 -0.0039271736 0.0010909175
000270 1d 69 e9 3a 1f 04 0f 3c 32 f3 82 ba 8a e6 04 bc
       0.0017807815 0.00872901 -0.0009990691 -0.008111605
000280 3b 02 fc bb 6a c6 a1 bb 78 c1 30 bc e7 4b af bb
       -0.0076906956 -0.004936983 -0.010788314 -0.0053496244
000290 8e b6 d6 bb 89 27 9b 3b 7b b6 49 3c 91 3e 07 bc
       -0.006552524 0.0047349376 0.012311573 -0.008254663
0002a0 e3 1a c8 bb 53 53 c0 bb 51 d1 6f 3b dd ff 6c 3c
       -0.006106721 -0.005869308 0.0036593268 0.014465299
0002b0 4d 22 20 bc 7f 4c 30 37 2f 4b 71 3b 51 9c d8 bb
       -0.009773803 1.0508228e-05 0.0036818495 -0.0066104312
0002c0 0e ac 2c 3c 78 83 72 3b e9 20 2c 3a 23 b8 2b 3c
       0.010539068 0.003700463 0.00065661833 0.010480913
0002d0 34 84 01 bc cc 6c 88 bb 42 7d 8b 3b 52 db b9 3a
       -0.007905055 -0.00416336 0.0042568753 0.0014179742
0002e0 9e 27 37 bc 46 07 99 bb d6 62 ec bb 85 32 1c ba
       -0.011178879 -0.0046700565 -0.0072139306 -0.0005958456
0002f0 60 77 da bb 2e f8 42 3c 33 88 17 bc 03 94 d2 3a
       -0.0066670626 0.011899991 -0.009248781 0.001606584
000300 0f 63 df 3c 90 94 09 3c ac 44 78 3c b8 83 1e 3c
       0.027268915 0.0083972365 0.015153091 0.009674959
000310 f0 6c 32 bc 43 d8 27 bc 83 bc 9d ba 0f 74 3b bb
       -0.010890231 -0.010244432 -0.001203433 -0.0028603112
000320 b9 fc e4 bb 41 c3 41 bc 52 c6 53 bc 0c 29 8a ba
       -0.0069881347 -0.011826337 -0.012925701 -0.0010540797
000330 96 f9 29 ba 27 95 37 bb 81 16 a7 bb 67 a9 fe bb
       -0.00064840296 -0.0028012486 -0.005099118 -0.007771659
000340 28 8f 00 3c 1c bc 49 3b 29 30 b2 3b c0 b7 53 bc
       0.007846631 0.0030782288 0.00543787 -0.012922227
000350 2c b9 07 bc 3e 54 29 bc c8 08 ee ba 07 00 ff 3a
       -0.0082838945 -0.010335026 -0.0018160576 0.0019454964
000360 21 e9 b0 39 25 e9 c9 3b 00 b0 13 bb 87 4f e3 3b
       0.0003374303 0.006161826 -0.0022535324 0.0069369706
000370 4b c5 e8 3b 54 e1 70 bc 87 a6 ce 3b ce b3 cd 3b
       0.0071035973 -0.01470216 0.0063064727 0.006277538
000380 79 e1 40 bc ad f0 ac bb 1f f2 c7 bb 0d ed 02 bb
       -0.011772507 -0.005277714 -0.006101861 -0.001997772
000390 1c f7 41 3c b2 0a e7 3b d9 f8 85 bb 50 0d 0b 3b
       0.011838701 0.0070508355 -0.004088503 0.0021217652
0003a0 2e ae 84 bb 6e 30 bc bb e7 c1 c9 3a 38 b5 35 3c
       -0.004049084 -0.005743078 0.001539287 0.011090569
0003b0 d4 be f2 bb 94 d8 c6 38 87 33 42 3b c3 27 a3 ba
       -0.0074080024 9.4817166e-05 0.0029632763 -0.0012447763
0003c0 74 ca 43 bc a7 ca c9 3b d8 9c a9 bb d5 d2 d5 3b
       -0.011950124 0.0061581912 -0.005176168 0.0065253773
0003d0 92 ca c6 bb 38 39 52 3c 5a 11 3c bc 27 d3 c2 bb
       -0.0060666287 0.012831025 -0.011478746 -0.0059455815
0003e0 3f 08 01 bc 0d af be bb e1 56 f3 3b e8 40 96 b9
       -0.007875501 -0.0058192075 0.0074261283 -0.00028658588
0003f0 86 c7 93 bb ed fb 86 3c 0e b6 4a bc d0 7a 8f bc
       -0.004509869 0.01647755 -0.012372507 -0.017514616

sequential/lstm/while/lstm_cell/MatMul_1 f4 [256, 64]
000000 bb df fe 3c 95 98 b4 3c 14 ad 7c bd ab e1 bb bd
       0.031112542 0.022045413 -0.061688498 -0.09173902
000010 6b 83 d6 bd 17 b9 50 bd 41 aa 9c bd 55 93 30 ba
       -0.10474285 -0.050957765 -0.07649661 -0.00067358214
000020 a1 a4 66 bd b2 a6 85 3d e4 cb 51 bd dc 50 a7 bc
       -0.056309346 0.06525935 -0.051219836 -0.020424299
000030 48 40 1c 3c ab 2c c3 3d 91 80 8b 3d a2 1b 55 bd
       0.00953681 0.09530004 0.068116315 -0.052028306
000040 07 4f b7 3c 77 95 ed bd a1 1b 06 bd 63 4e 31 3c
       0.02237655 -0.11600774 -0.032741193 0.0108219115
000050 a2 24 5e bb 91 8e 91 3c 37 77 b1 3c 71 d3 49 3c
       -0.0033896347 0.017768176 0.021663291 0.012318478
000060 48 68 b1 bc 29 18 4f bd 9d 30 9f bd a1 28 1f bc
       -0.02165617 -0.05056015 -0.07772944 -0.0097142765
000070 45 25 de 3c 23 97 52 bd 73 e9 64 bd d6 c5 b2 3d
       0.02711738 -0.051413666 -0.055886697 0.087291405
000080 ca b4 47 3c 84 cf 24 3d f6 96 5b bd 2f 27 30 3d
       0.0121891 0.040236965 -0.053610764 0.04300612
000090 77 41 6f 3d 8d 96 48 3d dc ef 4a bd 1a 42 bf bc
       0.05841204 0.0489717 -0.049545154 -0.02334695
0000a0 e8 65 30 3e 10 9b 83 bd 7c 5f c5 3c 69 54 8b bc
       0.17226374 -0.0642606 0.024093382 -0.017008023
0000b0 4f 94 2c bd dc fb c5 3b 5b 2c 44 3b 7d 51 52 bd
       -0.042133626 0.006041987 0.0029933664 -0.051347245
0000c0 1b e7 6f 3c fb f7 c9 bb 68 b5 fd 3b 55 26 77 3c
       0.014642502 -0.006163595 0.0077425726 0.015084823
0000d0 0d 31 a1 3c 73 85 56 3d 99 bd a1 3d 68 4f 7b 3d
       0.01967671 0.05237336 0.07897491 0.061355025
0000e0 6d d2 51 3c f7 c3 99 bc bf f0 6c 3d fd ba d4 3d
       0.012806517 -0.018770201 0.05784678 0.10387228
0000f0 27 15 f3 3c 8c 9b 5e 3d f1 6e 2a be ef 52 0a 3c
       0.029673172 0.05434756 -0.16643883 0.0084426245
000100 74 58 7c bb 6c d0 91 3d 67 eb 12 3d 3a 6a 9a 3d
       -0.003850487 0.071198314 0.03586903 0.07539792
000110 c2 9d ef 3b 25 e1 29 3e c4 8d 26 3d 8d 5b c9 3c
       0.0073125074 0.16589792 0.040662542 0.024579788
000120 58 51 0e bd a6 2c 13 3d e5 ad 2b bd 3c 20 61 3c
       -0.034745544 0.035931252 -0.041913886 0.013740595
000130 88 37 6c 3d bc 38 4e bc d5 b8 19 3d 9d d1 83 bd
       0.057670146 -0.012586769 0.037529785 -0.06436465
000140 0d fb 0e 3d e0 cf 31 bd 2a 09 86 3d f2 73 a4 bc
       0.03490739 -0.043411136 0.06544717 -0.020074818
000150 27 10 7b 3d 67 0e c7 3d fa 9c f6 bc e9 cf a2 3d
       0.0612947 0.09719544 -0.03010415 0.07949812
000160 80 46 aa 3b fa b5 d7 bd eb b3 2d be fa 34 6d 3d
       0.0051963925 -0.10532756 -0.16963165 0.05791185
000170 66 ee 62 ba ce e4 80 bc f2 af da bd fb 37 d8 3d
       -0.000865674 -0.015734103 -0.1067809 0.105575524
000180 74 53 40 3d 61 ce da 3c fd e3 1d 3e 87 9b 13 bd
       0.046954587 0.026709737 0.15419002 -0.036036994
000190 44 cb 15 3e e7 c2 7f 3d 75 e7 59 bd b4 90 78 3d
       0.14628321 0.062441733 -0.05319925 0.060684875
0001a0 dd 2b 60 3d 96 3f de 3d ec fe c0 3d f4 4c ff 3a
       0.05472933 0.10851972 0.094236225 0.001947789
0001b0 db c7 ce 3d b1 c1 76 3d b7 fe 54 3d 75 85 94 bb
       0.10096713 0.060243312 0.052000728 -0.004532511
0001c0 68 57 14 3d 79 ce 82 3c 78 80 89 3d e6 53 fd bd
       0.03621617 0.015967594 0.067139566 -0.12369518
0001d0 b2 c1 f6 3d 83 a3 83 bb 78 5e 80 3c ca 31 d1 3c
       0.12048663 -0.004017295 0.015670046 0.025536437
0001e0 a4 95 9e 3d 4d 99 83 3b 0c 26 bf 3c 45 b0 db 3d
       0.077433854 0.0040160776 0.023333572 0.1072698
0001f0 3d de 53 bc cb 20 a7 bd 7b 84 89 3d ef 62 e7 3d
       -0.012931404 -0.08160552 0.06714722 0.11298167
000200 0f 94 1d bc b3 04 d5 bd a1 7b 11 3d 61 c2 80 bc
       -0.009617819 -0.10401287 0.035518292 -0.015717687
000210 e5 37 75 bd 5c 3f 32 3d 33 b1 72 3c 2d 22 cd bd
       -0.05986776 0.043517455 0.014812755 -0.10016284
000220 7b 2b ff bc 69 f5 e2 bc fc de 23 bc fa 3e 2f 3d
       -0.031148663 -0.027704911 -0.010001894 0.04278467
000230 67 37 84 bd 86 57 f7 3d eb 2b 37 bd be 46 03 be
       -0.0645588 0.12077241 -0.044719618 -0.12819955
000240 f1 b6 8d bd ff 19 5a bd a0 c2 31 3e cb 38 ba bd
       -0.06919659 -0.053247448 0.173594 -0.09092864
000250 34 c2 3b bd 92 6c 71 3c 64 5c db bc 34 1c 08 bd
       -0.045839503 0.014735358 -0.026777454 -0.03323002
000260 1a 83 81 bd ce 86 66 bd 3b f3 e3 3d a4 08 0f bd
       -0.06323834 -0.056280904 0.11130377 -0.03492035
000270 aa a9 8c 3d b2 6d 0f bd 0d 22 e8 bd b8 d9 a4 bd
       0.06868298 -0.035016723 -0.1133462 -0.08049339
000280 61 60 97 3c 87 32 bd bc a5 00 34 bc da d9 b2 bd
       0.018478574 -0.023095382 -0.010986482 -0.08732958
000290 28 10 97 bc 0d 9d 12 3d be e0 1a 3d 26 96 85 3d
       -0.018440321 0.035794307 0.037811987 0.06522779
0002a0 d3 d9 2e bc 21 29 9a 3c 1a 4b e1 bd ba 2c df bd
       -0.0106720505 0.01881844 -0.110006526 -0.10897203
0002b0 e1 d4 b3 3c 97 db ca bc e1 24 cb bb ec 45 8b 3d
       0.021952095 -0.024762912 -0.0061994647 0.06800446
0002c0 7d e7 db 3c cd 2e 88 bd 3f 46 9f 3d 87 cf fb 3d
       0.02684378 -0.066495515 0.0777707 0.12295442
0002d0 e9 c3 9a bd de e4 78 3d a1 1e 99 bd 46 42 04 bc
       -0.07556898 0.06076514 -0.07476545 -0.008072441
0002e0 0b ca ef 3b 9e 32 82 bd 6e 57 fb bc 03 fa 0c bc
       0.0073177866 -0.06357311 -0.030681338 -0.008604529
0002f0 15 21 d4 3d 2d f1 04 bd 62 92 d8 bd 45 45 2a bc
       0.103578724 -0.032456566 -0.10574795 -0.010392492
000300 12 ee 9d 3d 96 1e 65 bd ff f4 ce bc 1f d7 af bd
       0.07711424 -0.055937372 -0.025263308 -0.08585953
000310 40 cd bd 3c 1d ab c3 bd e1 23 30 3e de 45 5d bd
       0.02316916 -0.09554122 0.17201187 -0.05402171
000320 8f 8a f4 3c 64 48 d9 3d c6 fa 45 3d de b4 79 3d
       0.029851226 0.106095105 0.04833486 0.060963504
000330 ef aa 22 3d ae 3c c2 3d c7 a5 68 bc c2 d1 68 bd
       0.039713796 0.0948423 -0.014199681 -0.056840666
000340 94 9f bb 3c d0 49 85 bd 99 ae ae bc 89 c6 f4 3d
       0.022903241 -0.06508219 -0.021323489 0.1195193
000350 92 42 98 bd 6d 1e 2f bd ac c6 d5 bc 36 2a 9f bd
       -0.07434572 -0.042753626 -0.02609571 -0.07771723
000360 b6 9d db 3d 7a 85 81 3d 28 b3 d6 3d 7b 19 5f bd
       0.1072344 0.06324287 0.1048339 -0.05446766
000370 c2 ce 03 bd 88 20 ab 3b a7 99 a4 3c 5f 93 63 bd
       -0.0321796 0.005222384 0.020092798 -0.055560466
000380 8b 5b 17 bd 70 df 81 bd 33 3d a8 3d 97 51 89 bd
       -0.036952537 -0.063414454 0.08214798 -0.06705015
000390 af 0b cb bd db 2a 02 bd f9 9d ca 3b 25 96 33 bd
       -0.09914338 -0.03177915 0.0061833826 -0.04384436
0003a0 97 7c 12 3d 76 9b a0 bd e6 53 3a bc e9 cb 3c bd
       0.03576335 -0.07842152 -0.011372542 -0.0460929
0003b0 6b 71 8d bd 85 0b ed bc 01 77 d0 3a 01 72 cd bd
       -0.069063984 -0.028936157 0.0015904607 -0.1003151
0003c0 d8 dc b5 bc 26 af f1 bc 19 e0 4b bd 0a fa 2a bc
       -0.022200033 -0.029502463 -0.049774263 -0.0104355905
0003d0 9a 42 73 bc 3b 74 b9 3b 7d 19 6b 3d 01 d2 81 bd
       -0.014847422 0.0056596077 0.057397354 -0.06338883
0003e0 2f 92 4d bc d5 a0 3e bd ae 9a 71 bc 45 fe 89 bc
       -0.01254706 -0.0465401 -0.014746351 -0.016844878
0003f0 b8 6f db bc 4f 21 96 bd ad b5 55 bd 55 e1 0b 3e
       -0.02678667 -0.07330572 -0.052175213 0.13660176

sequential/lstm/while/lstm_cell/MatMul f4 [256, 432]
000000 bb 5c b2 bd 55 05 d4 bc 5c f4 1b bc 40 33 cf ba
       -0.08709093 -0.025881449 -0.009518709 -0.001580812
000010 98 58 d7 bd 52 00 b4 bd 3c 90 1b 3c 16 4c b2 bd
       -0.10514945 -0.087891236 0.009494837 -0.087059185
000020 ca 1a 93 bd 4f 79 dd 3c 21 9b 61 3d ee 2d 91 3d
       -0.07182844 0.027035384 0.055079583 0.070888385
000030 26 54 66 3d 1a f5 91 3d 73 0a 80 3c 4e 95 8b 3d
       0.056232594 0.071268275 0.015629983 0.06815587
000040 da 57 95 3d b0 ee e3 3c a0 84 d9 3c 30 93 86 3d
       0.07292147 0.027823776 0.026552498 0.065710425
000050 8e 62 21 3d 4f 13 1f bc cf d7 ad 3d 20 c9 b4 3c
       0.03940063 -0.009709193 0.08488428 0.02206856
000060 8e ae 1d bc f3 69 0f 3d ec c2 00 3d aa a5 8c 3d
       -0.009624137 0.03501315 0.031435892 0.068675354
000070 19 9b 84 bd 91 0a 00 3d e0 05 d6 3d c2 c0 56 bd
       -0.06474895 0.031260077 0.10450339 -0.052429922
000080 f9 16 ef b9 84 6c 09 3d 09 a6 ed 3b 12 15 aa 3d
       -0.00045602748 0.033550754 0.007252459 0.083048
000090 95 3e 4c 3d 24 2d 81 3d 3a 16 93 bd be 51 9b 3d
       0.04986437 0.06307438 -0.07181974 0.075839505
0000a0 1b d4 3d 3d fc 6d 05 3d c5 63 25 3d d0 34 55 bc
       0.046344858 0.032575592 0.04037835 -0.01301308
0000b0 f2 34 6b 3c d8 3a 0a bd 92 22 a0 3d 00 df 94 bb
       0.014355885 -0.033747524 0.07819094 -0.0045431852
0000c0 e0 83 63 3d 96 19 b3 bb fb 4b 7c 3d d0 a3 a8 3d
       0.055545688 -0.0054656966 0.061595898 0.0823437
0000d0 83 57 7f 3d db a6 b1 bc 98 81 0e 3d cc bf 43 3d
       0.062339317 -0.021686008 0.03479156 0.047790334
0000e0 d5 31 ed bc 06 2e 5c 3d 80 66 d5 3d 00 f1 7f bb
       -0.028954426 0.05375483 0.10419941 -0.003905356
0000f0 4d 47 53 bd 03 04 6b bd bb 5f 94 3d 1c 09 f6 bc
       -0.05158167 -0.057376873 0.07244822 -0.03003364
000100 5d 9c 9d 3d 29 33 33 bd f1 1f 8d 3d b8 ad 74 bd
       0.076958396 -0.043749962 0.06890858 -0.059735984
000110 83 67 02 3d 79 3a 13 bd a8 c6 e4 b9 5e 5c 88 3d
       0.031836998 -0.035944436 -0.0004363556 0.06658243
000120 19 75 11 bc dd 9c d7 bd 6b ee 3d 3d 8d e8 3c bd
       -0.008878016 -0.10527966 0.04636995 -0.046120215
000130 eb 47 c0 bd 20 bd bc bc a4 0b c0 3d fa cd 91 bd
       -0.09388717 -0.0230394 0.0937722 -0.07119365
000140 3b 5a b2 bb 17 0b 23 bc 39 90 67 bd a2 08 8b bd
       -0.005442885 -0.0099513745 -0.056534026 -0.06788756
000150 23 8d cc bd 52 53 b2 bc 64 97 23 bb 8e 75 11 3b
       -0.09987857 -0.021768246 -0.0024962062 0.0022195312
000160 b2 e3 f1 3c b6 47 6d bd ab cf ae bd f7 7f 98 bd
       0.029527519 -0.057929717 -0.08535703 -0.07446282
000170 6f 85 3f bc 1f f5 cf bd ce fb 15 bd ce f5 41 3d
       -0.011689528 -0.10154175 -0.036617093 0.04735356
000180 30 bb d6 bd c3 f4 a3 bd 9a fa e7 bc 4e e1 fa 3c
       -0.10484922 -0.08005669 -0.028317738 0.030625012
000190 00 91 ab bc 29 ac bc bd 28 ab 5a 3c b3 35 66 3d
       -0.020943165 -0.092125244 0.013346471 0.056203555
0001a0 8d 6e 80 bc 6b 20 39 3c 2c da 24 3d 49 47 95 bd
       -0.015677715 0.011299233 0.040247127 -0.07288987
0001b0 0f 47 30 3c 4e e7 59 bd 20 41 02 bc a1 3b b1 3d
       0.010759129 -0.053199105 -0.007950097 0.086539514
0001c0 a1 51 1c bd 37 7c 15 3c bc 41 35 bd 8d e0 ab 3d
       -0.038163785 0.009123853 -0.044252142 0.08392439
0001d0 2f 8d 13 3c bc 2f 4d 3d 7d 51 a2 bd 20 c7 5f bd
       0.009005829 0.05009435 -0.07925699 -0.05463326
0001e0 2c 80 aa 3d 6e 6c 59 bc 9e 2c 3f bd 78 79 fc ba
       0.08325228 -0.013270481 -0.04667341 -0.0019262275
0001f0 11 74 3e 3d d0 e9 c5 bc 70 8f b0 bd d3 7a a8 3d
       0.04649741 -0.024159342 -0.086211085 0.08226552
000200 0d 49 7e 3d bc 45 07 3c 24 19 4d 3d de 5c 78 bd
       0.062081385 0.008256372 0.050072804 -0.06063544
000210 8b e9 4f bd 29 67 9f bd 12 61 92 3d 20 11 cf bc
       -0.050759833 -0.07783348 0.07147421 -0.02527672
000220 55 0a 15 3d 63 37 cf bd 25 9c 7f bd 32 cc a0 bd
       0.036386807 -0.10117986 -0.06240477 -0.07851447
000230 6a 7e 14 3d 72 b3 8f bd 42 99 8a 3d 02 31 f7 bc
       0.03625337 -0.07016648 0.06767513 -0.030174736
000240 4b df 3e 3d 38 c9 90 bd f0 ff 81 3d 2b 67 bd 3c
       0.046599668 -0.070696294 0.06347644 0.023120483
000250 7d 55 0f bc 7c f4 82 3d a6 e2 90 3d 14 e0 3e bd
       -0.008748409 0.06394288 0.0707448 -0.046600416
000260 0e 2d ba bc e7 4e 1e bc 8e a0 bc 3d f2 2b d0 bc
       -0.022726562 -0.0096623665 0.09210311 -0.02541158
000270 61 7c e7 bc 00 34 95 bd 74 e1 61 3d 22 cf 99 bd
       -0.02825755 -0.07285309 0.05514665 -0.075102106
000280 e8 58 9b bd f8 db af bd c8 41 da 3c 82 1e 1e 3c
       -0.07585317 -0.085868776 0.026642695 0.009650828
000290 46 ee 0d 3d e5 56 45 bd 84 8f 30 3d d4 d7 ca 3d
       0.034651063 -0.048178572 0.043105617 0.09904447
0002a0 68 4e 7d bd 06 eb a8 bc 2f 5b b3 bd 93 7f 5c bd
       -0.061842352 -0.02061988 -0.08757626 -0.0538326
0002b0 17 43 8e 3b c6 94 7a bd e2 9d 7d bd 17 a2 02 bd
       0.004341494 -0.061177038 -0.061918147 -0.031892862
0002c0 a5 f2 d6 3d 05 a7 81 3c 3f 8b 4a bd 01 8d 1e bd
       0.104954995 0.015826711 -0.0494492 -0.03870869
0002d0 b1 51 ce bc 5e 0f d0 3c 20 43 8f 3d b4 37 01 3d
       -0.025185438 0.025397953 0.06995225 0.031547263
0002e0 d7 f3 9a bc fc 56 80 bb 7d 8e 8b bd c5 e7 33 bc
       -0.0189151 -0.0039166193 -0.06814287 -0.010980551
0002f0 19 04 15 3d 1f e3 65 bd 4c 38 84 bc 6c 98 b2 3c
       0.03638086 -0.056124803 -0.016140126 0.021801196
000300 12 e9 54 bc ab a5 8c bd 5d 1f 21 3d e3 13 d8 bc
       -0.012995021 -0.06867536 0.03933655 -0.02637667
000310 22 f7 92 bd c1 c7 4b 3d 5b da 53 3d 7e e0 d7 bc
       -0.07176043 0.049751047 0.051721912 -0.026352163
000320 c0 f0 89 b9 2a 1d ed 3b 35 e0 87 bd 49 70 19 bc
       -0.0002631005 0.0072361426 -0.06634561 -0.00936515
000330 7e ca 5e 3d e6 2b 95 3c a2 a6 33 3d 16 65 da 3c
       0.05439233 0.018209409 0.043860085 0.02665953
000340 8d 0e 4b 3d b8 3b 89 3d 57 a3 a9 3c d4 35 81 bd
       0.049574424 0.067008436 0.02070777 -0.06309095
000350 68 c5 5e bd 8d 4f 58 bd 93 5f 9c bd b3 10 e4 bc
       -0.05438748 -0.05281024 -0.07635417 -0.027839994
000360 1c cd 11 bd 6d bc 0a bc f0 0d 47 bd 7b 3c bb 3d
       -0.035596 -0.008467776 -0.048597276 0.09142395
000370 05 e6 f8 3c 60 8a 5e 3d 9d 69 48 bd 32 c1 b5 bb
       0.03038312 0.054331183 -0.048928846 -0.0055467123
000380 12 7f c4 bc d4 ae 28 3d 58 32 ba 3d bc a0 34 3d
       -0.023986373 0.041182354 0.090916336 0.0440986
000390 c1 96 b7 3d 63 88 67 3d cd 93 50 3d a6 5b 5d bd
       0.08964301 0.056526553 0.050922204 -0.05404248
0003a0 4a 8e 3e 3d 21 e5 91 bd df e1 f2 bc 9d da 10 bd
       0.046522416 -0.07123781 -0.02964872 -0.035364736
0003b0 41 55 9e bd 25 d1 e8 bc d1 2f 36 3d bc 60 9d bc
       -0.07731105 -0.02842004 0.044479195 -0.019211166
0003c0 09 dc 2b 3d 81 57 74 bd 49 38 73 3d 2c 19 a6 3c
       0.04195789 -0.059653763 0.05937985 0.020275675
0003d0 c9 40 3f 3d 95 ee 09 bb 6c e2 10 bd ac b3 f8 3c
       0.046692643 -0.0021046747 -0.035372183 0.030359112
0003e0 3b c4 27 3d 05 79 8b bd 79 a3 47 bd df cb 36 bd
       0.040958624 -0.06810192 -0.048739884 -0.04462802
0003f0 73 41 35 bd 62 10 57 bd cc 9e af bd 6c e3 5c 3d
       -0.04425187 -0.05250586 -0.0857521 0.053927824
